Capstone-ML-model/Recomendation/recommendation_model.tflite (tflite, 34392 bytes, 12 tensors)

arith.constant f4 [16, 32]
0	0x3ea34a85	0.3189279
1	0x3d71f4cc	0.059071347
2	0x3db52025	0.08844022
3	0xbec17916	-0.37787694
4	0x3e80c36f	0.25149104
5	0x3e48ad8d	0.19597454
6	0xbd0e6e41	-0.034773115
7	0x3e4be85e	0.1991286
8	0xbe872e8e	-0.26402706
9	0xbdfdeee3	-0.1239908
10	0xbe59d60d	-0.2127306
11	0xbe7ee0b6	-0.24890408
12	0xbea7781d	-0.32708827
13	0xbe688b0f	-0.22709297
14	0xbe36d58d	-0.178549
15	0x3e877415	0.2645575
16	0x3e99a363	0.30007467
17	0xbea38bf9	-0.31942728
18	0x3e5900a4	0.2119165
19	0x3e5ca882	0.21548656
20	0xbe941dbe	-0.2892894
21	0x3eadb489	0.339268
22	0xbded43f2	-0.11585225
23	0x3eae46e2	0.34038454
24	0x3e2f941a	0.1714634
25	0x3ea0fbe0	0.31442165
26	0xbe66fc15	-0.22557099
27	0xbe4d9284	-0.20075423
28	0xbe90ad3e	-0.28257173
29	0x3e5b6e60	0.21428823
30	0x3dc075a2	0.09397437
31	0xbdace4f9	-0.084421106
32	0xbdeccc68	-0.11562425
33	0xbcba017a	-0.022705782
34	0xbeaf4ea9	-0.342397
35	0xbde444c1	-0.11145926
36	0x3eab0dcb	0.3340896
37	0x3e1ce03e	0.15319917
38	0xbe86196f	-0.2619128
39	0xbe71969c	-0.23592609
40	0x3dea21dc	0.114322394
41	0x3ea0ca8c	0.3140453
42	0xbea70327	-0.32619593
43	0xbe1507ab	-0.14553706
44	0x3dcb0ecc	0.09914932
45	0xbe67a8a4	-0.22622925
46	0x3d4f8803	0.05066682
47	0xbe9f47f3	-0.3110958
48	0x3c290014	0.01031496
49	0x3d94d4b5	0.07267133
50	0xbe9c6ec4	-0.30553257
51	0x3e860698	0.26176906
52	0x3e2355be	0.15950677
53	0x3e2c31fd	0.16815944
54	0xbeb22450	-0.3479333
55	0x3c921d9e	0.017836388
56	0x3bf19094	0.0073719714
57	0x3e09d0b7	0.13458525
58	0xbe8cf19b	-0.2752808
59	0xbe43091a	-0.1904644
60	0x3e68878c	0.22707957
61	0x3ea11aec	0.31465852
62	0x3e7cf4a0	0.24702692
63	0xbf210b02	-0.6290742
64	0xbe930c83	-0.28720483
65	0xbca5b3c8	-0.020227328
66	0x3e8cbc04	0.27487195
67	0xbeb89253	-0.36049137
68	0xbdd47136	-0.10373156
69	0x3cc43ccf	0.023954777
70	0x3c65724a	0.014004299
71	0xbe574c9c	-0.21025318
72	0x3e85bc30	0.26120138
73	0xbdea5541	-0.11442042
74	0xbd78477c	-0.060615048
75	0xbe102f28	-0.14080489
76	0x3d80ec22	0.06295039
77	0x3e876fac	0.26452386
78	0xbe26644b	-0.16249196
79	0x3d099bbb	0.03359578
80	0xbd296a38	-0.041361064
81	0x3c6c959c	0.0144399665
82	0xbe603d21	-0.21898319
83	0x3e42fde8	0.1904217
84	0xbe3064a1	-0.17225887
85	0x3e81e71e	0.2537164
86	0xbe7628aa	-0.2403895
87	0x3e967a0c	0.2938999
88	0x3d9dfa1d	0.07713721
89	0xbea596b1	-0.3234153
90	0x3e4c44ab	0.1994807
91	0x3e1d841b	0.15382425
92	0xbe0e126a	-0.13874212
93	0xbe0f71f2	-0.1400831
94	0x3d0fc477	0.035099473
95	0xbd5dae9f	-0.05412161
96	0x3e9ed1bf	0.310194
97	0x3e38f0bf	0.18060587
98	0xbdf062cf	-0.11737596
99	0xbf047f1c	-0.51756454
100	0x3e0f1d8a	0.13976112
101	0xbe3931b8	-0.18085372
102	0xbea8ddd6	-0.32981747
103	0x3e599c46	0.2125102
104	0xbd9bfa12	-0.076160565
105	0xbe88a26f	-0.26686427
106	0xbd1d8d3c	-0.03846477
107	0xbf1bbcd6	-0.60835016
108	0xbea76e19	-0.32701185
109	0xbeab3408	-0.33438134
110	0x3e2a069a	0.16604081
111	0x3ddbbcec	0.10729393
112	0x3dfcb9f2	0.12340154
113	0xbe77929b	-0.2417702
114	0xbe4de33b	-0.20106213
115	0xbd697c6e	-0.05700343
116	0xbe565c04	-0.20933539
117	0x3e96a20d	0.2942051
118	0xbd348267	-0.044069674
119	0xbdc5502b	-0.096344315
120	0xbe3d7a0f	-0.18503593
121	0xbea49f93	-0.32152995
122	0xbdd3a8d6	-0.10334937
123	0xbd424ce8	-0.047436625
124	0xbea92072	-0.33032566
125	0xbea46a0e	-0.32112163
126	0x3df197f2	0.117965594
127	0xbe0a053e	-0.13478562
128	0x3d907d33	0.0705513
129	0xbe2178ec	-0.15768784
130	0xbd2c5cf4	-0.042080835
131	0xbe7b615e	-0.24548861
132	0xbdf84661	-0.12122799
133	0xbe9f72cc	-0.3114227
134	0xbd458b16	-0.048228346
135	0x3cecfde7	0.028929664
136	0xbd8f8e27	-0.07009535
137	0xbcd63387	-0.026147617
138	0xbd81a553	-0.06330361
139	0xbe8e1432	-0.27749783
140	0xbe124cc3	-0.14287095
141	0xbeaccf5a	-0.33751947
142	0xbeac6696	-0.33672017
143	0xbe1aebe0	-0.15129042
144	0xbcd27367	-0.025689794
145	0xbda75cfd	-0.08172033
146	0xbbf79a8b	-0.0075562648
147	0xbdfa7815	-0.12229935
148	0x3d9bb6f3	0.07603254
149	0xbe5d397b	-0.21603958
150	0xbe621cb8	-0.22081268
151	0xbe09779b	-0.13424532
152	0xbe1b0766	-0.15139541
153	0x3e6e3f6f	0.23266385
154	0xbd369aac	-0.0445811
155	0xbe1299d9	-0.143165
156	0x3db3eeb3	0.08785763
157	0xbd988b5f	-0.07448458
158	0xbe24bcf7	-0.1608771
159	0xbe03359f	-0.12813424
160	0x3df90281	0.12158681
161	0x3e582104	0.21106344
162	0x3e1f1209	0.15534224
163	0xbcaba0f5	-0.020950774
164	0x3e2a06a3	0.16604094
165	0x3e72f0da	0.2372469
166	0x3d24aa3e	0.040201418
167	0xbdd7f5bb	-0.10544916
168	0x3d764167	0.060120966
169	0x3e539a33	0.20664291
170	0x3e30d20d	0.17267628
171	0x3ea4d492	0.32193428
172	0xbc02378f	-0.0079478165
173	0x3e73ed80	0.23821068
174	0x3e6a0913	0.22855024
175	0x3e1ef901	0.15524675
176	0xbca06694	-0.019580163
177	0xbe08abd6	-0.133468
178	0xbe5b462b	-0.21413486
179	0x3e00178e	0.12508985
180	0xbdafc4ea	-0.0858248
181	0x3dc8e246	0.09808783
182	0x3e306199	0.1722473
183	0x3da7e3dc	0.081977576
184	0xbb35eb8c	-0.0027758805
185	0x3d9d446a	0.076790646
186	0xbe79e607	-0.24404155
187	0xbe3cad14	-0.18425399
188	0x3c746685	0.014917021
189	0x3e9d8354	0.30764258
190	0x3e88a10c	0.2668537
191	0xbdfd0864	-0.12355116
192	0x3e096d01	0.13420488
193	0x3d9eb35d	0.077490546
194	0x3e048b5d	0.12943788
195	0xbdaf4fac	-0.08560118
196	0xbd9bfca1	-0.076165445
197	0xbe883071	-0.26599458
198	0xbe6c4f59	-0.23077144
199	0x3e316934	0.17325288
200	0x3e53700a	0.20648208
201	0xbd1ba7f0	-0.038001955
202	0xbcee350a	-0.029078025
203	0xbe17ef0b	-0.14837281
204	0xbdaa7176	-0.08322422
205	0xbcdb92d3	-0.02680341
206	0xbd8109a4	-0.06300667
207	0x3cedfd0e	0.02905133
208	0x3d6aa591	0.057286803
209	0x3d8354bb	0.064126454
210	0xbcabe129	-0.020981388
211	0x3e92db55	0.28682962
212	0xbd1f67d6	-0.038917385
213	0xbda1a52f	-0.078928344
214	0x3e5b7f18	0.21435201
215	0xbcd464eb	-0.025927028
216	0xbc49ae6f	-0.012309655
217	0x3e828767	0.2549393
218	0x3e49f32a	0.19721666
219	0x3e918ee9	0.28429344
220	0x3e96be3d	0.29442015
221	0xbea14fdd	-0.31506243
222	0x3eae8db0	0.34092474
223	0x3ddd9491	0.108193524
224	0x3cd40308	0.025880352
225	0xbe87b291	-0.26503423
226	0xbe672da0	-0.22575998
227	0xbe2b71b4	-0.16742593
228	0xbe861105	-0.2618486
229	0x3d3e9ead	0.046538044
230	0x3e8de187	0.27711126
231	0x3d019599	0.031636808
232	0x3c0f33e6	0.008740401
233	0x3b3ac6dc	0.0028499877
234	0x3e839cab	0.25705466
235	0x3ec2b5ce	0.3802933
236	0x3ea62d5a	0.32456475
237	0xbd650630	-0.055914104
238	0xbe947587	-0.28995916
239	0x3e620fc3	0.22076325
240	0x3d5467ba	0.051856734
241	0xbd8b793d	-0.06810234
242	0x3d12dfdb	0.035858016
243	0x3e801908	0.25019097
244	0xbe822468	-0.254184
245	0x3e9fd210	0.31214952
246	0x3e990399	0.29885557
247	0xbe31edf8	-0.17375934
248	0xbe8338c6	-0.25629252
249	0xbdfd574f	-0.123701684
250	0x3dacc818	0.08436602
251	0xbdb28482	-0.0871668
252	0x3e7fa004	0.24963385
253	0x3ea134d4	0.31485617
254	0x3e8fb4ba	0.2806757
255	0x3e3d27aa	0.18472162

arith.constant1 f4 [16]
0	0xbdbf15d6	-0.09330337
1	0xbe35e4f2	-0.17763117
2	0xbd817d9f	-0.063227884
3	0xbe2f0c01	-0.17094423
4	0xbdb565a1	-0.08857275
5	0xbb5cdf5d	-0.003370247
6	0x3cc591a2	0.024117295
7	0x3da4c7fb	0.08045956
8	0x3e29d211	0.1658404
9	0xbda6631a	-0.08124371
10	0x3e246b43	0.16056542
11	0x3dca6f6f	0.098845355
12	0x3c65bad2	0.014021592
13	0x3d85dfca	0.06536825
14	0x3df819a1	0.12114263
15	0xbad72e76	-0.0016417045

arith.constant2 f4 [32, 64]
0	0xbdc1f84c	-0.09471187
1	0xbdf6aefc	-0.12045094
2	0xbd67c808	-0.05658725
3	0xbd9510a4	-0.072785646
4	0x3e3c2940	0.1837511
5	0xbdc6a313	-0.09699073
6	0x3dbfcdfd	0.09365461
7	0xbd174dc5	-0.0369394
8	0x3cb35d4f	0.021895079
9	0x3e01369d	0.1261849
10	0xbe83e99c	-0.25764167
11	0xbe473f7d	-0.19457813
12	0x3e5a8196	0.21338496
13	0x3e6c8b62	0.23100045
14	0x3d90f87a	0.07078643
15	0x3e16a84e	0.1471264
16	0xbe23f749	-0.160123
17	0xbe1a72c2	-0.15082839
18	0xbdb51509	-0.08841903
19	0xbe0f0928	-0.13968337
20	0xbe57515a	-0.21027127
21	0x3e379641	0.17928411
22	0x3c04cd13	0.008105534
23	0xbd1010d1	-0.035172287
24	0xbbe1109d	-0.0068684355
25	0x3c43ad60	0.011943191
26	0xbe0317fc	-0.12802118
27	0x3dd059a2	0.10173346
28	0xbeb8e06f	-0.3610873
29	0x3e4afc8b	0.198229
30	0xbde4a2c5	-0.11163858
31	0xb8cd5fce	-9.793007e-05
32	0x3d7ba536	0.061436854
33	0x3e1dfb99	0.15428008
34	0x3dd07f8f	0.1018058
35	0xbb8eca4d	-0.004357612
36	0xbe5881d1	-0.21143271
37	0x3d682a9c	0.05668126
38	0xbdbe468d	-0.092908
39	0xbd1d8f1a	-0.03846655
40	0xbdaff629	-0.08591873
41	0xbdacd123	-0.08438327
42	0xbc2ef30c	-0.010678064
43	0xba8f56b1	-0.001093587
44	0xbd22d44a	-0.039753236
45	0xbe85a469	-0.26101997
46	0xbe63d17e	-0.22247884
47	0x39dd8dcf	0.0004225806
48	0xbd1fece6	-0.039044283
49	0xbe815ca5	-0.25265995
50	0x3e20854b	0.15675847
51	0xbe6ba53c	-0.2301225
52	0xbd79c358	-0.06097731
53	0x3d1eb4e3	0.038746726
54	0x3e1e0968	0.15433276
55	0x3d97e117	0.07415979
56	0xbea59f7d	-0.32348242
57	0x3de1263e	0.10993622
58	0x3dbc6d8e	0.092005834
59	0xbb3afdec	-0.0028532697
60	0xbe6a311b	-0.22870295
61	0x3d2c38fb	0.04204653
62	0xbe268177	-0.16260324
63	0xbe17a7ab	-0.14810054
64	0xbe4fb50c	-0.20283908
65	0x3d032d0e	0.03202539
66	0xbdb881d1	-0.090091355
67	0x3e5df558	0.21675622
68	0xbe2d44f0	-0.16920829
69	0xbc8f5187	-0.01749493
70	0x3e2ae8f7	0.16690432
71	0xbe2f5426	-0.17121944
72	0x3da7ac90	0.081872106
73	0x3e33efab	0.17571895
74	0x3dee8a08	0.11647421
75	0x3e1fca14	0.1560443
76	0x3cc5bcd0	0.024137884
77	0xbe4b18c5	-0.19833668
78	0xbd2ba913	-0.04190929
79	0xbe31508c	-0.17315882
80	0x3e0becad	0.13664503
81	0x3e1122d9	0.1417345
82	0xbd99d387	-0.07511049
83	0xbe4117c5	-0.18856724
84	0x3e3925e6	0.18080863
85	0x3c08c9bc	0.0083488785
86	0x3e16eb2e	0.14738151
87	0xbe772584	-0.24135405
88	0xbde6cc6a	-0.11269458
89	0x3d8113c0	0.06302595
90	0x3e36a662	0.17836908
91	0xbe175cf5	-0.14781554
92	0x3cf2c78a	0.029636163
93	0xbe2899ae	-0.16464874
94	0x3dfd17f1	0.12358082
95	0xbe1cdd6a	-0.15318838
96	0xbd5929a1	-0.053018216
97	0xbb49252a	-0.0030692318
98	0xbdd1cc56	-0.10244052
99	0xb868169c	-5.5334167e-05
100	0xbd19364f	-0.03740531
101	0x3e0e7e8a	0.13915458
102	0xbe380c65	-0.17973478
103	0x3cdbbbc8	0.02682294
104	0x3db9c97e	0.09071635
105	0xbe52bf65	-0.20580824
106	0x3e45953e	0.19295213
107	0xbd03c37a	-0.032168843
108	0xbc4e4447	-0.012589521
109	0xbe9dc562	-0.30814654
110	0x3defe9f3	0.11714544
111	0x3d21e6b5	0.03952666
112	0x3e18d30c	0.14924258
113	0xbdf0ace9	-0.1175173
114	0x3d99244b	0.074776255
115	0xbdfd5227	-0.12369185
116	0xbdb994de	-0.09061597
117	0x3dcb78f9	0.09935183
118	0xbd735aa1	-0.059412602
119	0x3def4d22	0.11684634
120	0x3e19579c	0.14974827
121	0x3de617c5	0.112350024
122	0xbd9f2b53	-0.07771935
123	0x3cc97df4	0.024596192
124	0x3e4ff8c6	0.20309743
125	0xbe093efb	-0.13402931
126	0x3b9af491	0.0047288616
127	0x3d893259	0.06699056
128	0xbd5eafae	-0.05436676
129	0xbde6066a	-0.11231692
130	0xbd682b8f	-0.056682166
131	0x3e43717d	0.19086261
132	0xbc59a79f	-0.013284593
133	0x3da6e154	0.08148447
134	0xbe3bb943	-0.1833239
135	0xbe4bbfc7	-0.19897376
136	0xbe40a807	-0.18814097
137	0x3d9b8631	0.07593954
138	0x3e2d6957	0.16934715
139	0x3cc6a2b0	0.024247497
140	0x3e35559e	0.17708442
141	0xbd0a408a	-0.033752955
142	0x3c1ad095	0.009449144
143	0xbd4645cd	-0.04840641
144	0x3d5a34aa	0.05327288
145	0xbca6e51e	-0.020372923
146	0xbe470b5e	-0.1943793
147	0x3e61cd4a	0.22050968
148	0xbd9cb53b	-0.076517545
149	0xbe2aec4b	-0.16691701
150	0xbc8459f6	-0.016156178
151	0x3e615a63	0.22007136
152	0x3daafc3c	0.08348891
153	0x3d1be243	0.038057577
154	0xbe233a21	-0.15940143
155	0x3e054d46	0.13017759
156	0xbe2462ca	-0.1605331
157	0xbdb5a68f	-0.08869659
158	0x3d9207c8	0.071303904
159	0x3e6443ae	0.22291443
160	0xbbdca198	-0.0067331307
161	0xbe3296ec	-0.17440385
162	0x3e23c6d5	0.15993817
163	0xbd2e9c08	-0.04262927
164	0x3de62c6b	0.11238941
165	0xbd86c3ba	-0.06580301
166	0xbe7977cb	-0.24362104
167	0x3e4cb121	0.19989444
168	0x3e04366e	0.12911388
169	0x3e4afdc3	0.19823365
170	0xbc488f83	-0.012241247
171	0xbe47384d	-0.19455071
172	0x3e3e5f0c	0.18590945
173	0xbdfb67c5	-0.12275652
174	0x3c67d3df	0.014149635
175	0xbe008565	-0.12550886
176	0xbd13d48d	-0.036091376
177	0xbe6cf271	-0.23139359
178	0xbdf0fc48	-0.11766869
179	0x3d81a9cc	0.06331214
180	0xbcc0ed64	-0.023550697
181	0x3dbfcdf0	0.09365451
182	0xbe11d780	-0.14242363
183	0x3e21a59a	0.15785828
184	0x3e4372d8	0.19086778
185	0x3dfc2710	0.12312138
186	0x3d32b2fb	0.04362772
187	0x3dd5749a	0.104226306
188	0x3c93efa7	0.018058611
189	0xbd99ace7	-0.07503682
190	0xbd2145e8	-0.03937331
191	0xbe4b0b89	-0.19828619
192	0x3e876e86	0.2645151
193	0xbd8fdf5e	-0.07025026
194	0x3cf7cdf7	0.030249579
195	0xbcb7c4a1	-0.022432627
196	0xbcad0871	-0.02112219
197	0xbe3191b7	-0.17340742
198	0x3db114e7	0.08646565
199	0xbe0d782c	-0.13815373
200	0x3da48680	0.08033466
201	0x3e0f77a0	0.14010477
202	0x3e4bcb54	0.19901782
203	0xb9d13d30	-0.00039909175
204	0x3e19094b	0.14944951
205	0x3e98f6d2	0.2987581
206	0x3e6ccde4	0.23125416
207	0xbe51841e	-0.20460555
208	0x3cab874b	0.020938536
209	0x3e4a2d9e	0.19743964
210	0x3df9d299	0.121983714
211	0xbdae3417	-0.08506029
212	0xbdd2814e	-0.10278569
213	0xbde46d9d	-0.111537196
214	0xbd66079a	-0.056159593
215	0x3e4fbd47	0.20287047
216	0x3df090c9	0.117463656
217	0x3d22b1b7	0.039720263
218	0xbc142053	-0.00904091
219	0x3e517e6e	0.20458385
220	0x3f2db79e	0.678583
221	0x3e140174	0.1445368
222	0x3e19747f	0.14985846
223	0x3e2d01af	0.16895173
224	0xbc28651b	-0.010278012
225	0x3e427c65	0.18992765
226	0x3d16f062	0.03685034
227	0x3e5cc11b	0.21558039
228	0x3e64e148	0.22351563
229	0xbd51cbcc	-0.051219746
230	0x3d8bfab6	0.06834929
231	0x3e7f3f34	0.24926454
232	0xbb4279a0	-0.0029674545
233	0xbd68e768	-0.05686131
234	0x3c4d8ffa	0.012546534
235	0x3e396921	0.1810651
236	0x3e183b94	0.14866477
237	0x3e9d4f16	0.307244
238	0xbe29f622	-0.16597798
239	0xbca54e92	-0.020179067
240	0x3e0407b0	0.12893558
241	0x3e38d659	0.18050517
242	0xbde88219	-0.11352939
243	0x3e8f0bf9	0.27938822
244	0x3ea76649	0.32695225
245	0x3dd79695	0.10526768
246	0x3e30485e	0.17215106
247	0x3e4e4e7d	0.20147128
248	0x3f33effd	0.7028807
249	0x3e52b1af	0.20575593
250	0x3e356067	0.17712556
251	0x3e654994	0.22391349
252	0x3e86f4d1	0.26358655
253	0x3e783bf8	0.24241626
254	0x3e463a25	0.19358118
255	0x3e2209b2	0.15824011

arith.constant3 f4 [32]
0	0xbe2ad4b0	-0.16682696
1	0xbddaf105	-0.10690502
2	0x3d09d61f	0.033651467
3	0x3f11baab	0.5692546
4	0xbe0d40fd	-0.13794322
5	0xbe004df7	-0.12529741
6	0x3e94cb80	0.29061508
7	0x3c5430cc	0.012951087
8	0xbda168ce	-0.07881318
9	0xbd7592bc	-0.05995439
10	0x3ea71c10	0.32638597
11	0x3f221b4b	0.63322896
12	0xbe42e715	-0.19033463
13	0xbdc78488	-0.09742075
14	0xbd9af4e6	-0.07566242
15	0x3c34a34c	0.011025261
16	0xbcc6b260	-0.024254978
17	0xbd9dd5f9	-0.07706828
18	0x3e3b8572	0.18312624
19	0xbda4a8bc	-0.08039996
20	0xbd72f7f6	-0.059318505
21	0xbdf95009	-0.121734686
22	0x3ec10c32	0.37704617
23	0xbcc9a42a	-0.024614412
24	0xbe206fcf	-0.15667652
25	0xbd966eec	-0.073453754
26	0x3e7a9274	0.2446993
27	0x3ebebd6e	0.37253898
28	0xbdf8d768	-0.121504605
29	0xbbf5e76a	-0.0075043933
30	0xbe301aeb	-0.17197768
31	0x3f24ff63	0.6445219

arith.constant4 f4 [16, 32]
0	0x3df028f4	0.11726561
1	0x3e7ee53a	0.2489213
2	0x3d8a915c	0.06766006
3	0xbea28e71	-0.317493
4	0x3e561cf0	0.20909476
5	0xbe570d31	-0.21001126
6	0x3e957a18	0.29194713
7	0x3e94f939	0.29096392
8	0x3c97c7f5	0.018527964
9	0xbe8e66b4	-0.2781273
10	0xbe90fc96	-0.28317708
11	0x3d9aec4d	0.07564602
12	0x3e758192	0.23975208
13	0x3e3c35fc	0.18379968
14	0xbdd38326	-0.10327749
15	0xbd9c774c	-0.076399416
16	0xbef9764a	-0.4872306
17	0xbd2464b1	-0.04013509
18	0xbd4240b4	-0.047424987
19	0x3de6d502	0.11271097
20	0x3df37dd8	0.11889237
21	0x3e8e3f7f	0.2778282
22	0xbeab4a8f	-0.3345532
23	0xbe0044aa	-0.12526193
24	0xbddbcd56	-0.10732524
25	0x3e171111	0.14752604
26	0x3e492a42	0.19645026
27	0x3e3cbac4	0.1843062
28	0xbdcee9f4	-0.10103217
29	0x3ea5c801	0.32379153
30	0xbe1678ff	-0.14694594
31	0xbe931df1	-0.2873378
32	0xbe0db8dc	-0.1384005
33	0xbe4dd7fa	-0.2010192
34	0xbda2788e	-0.0793315
35	0xbed07b0f	-0.40718886
36	0x3e5ce32d	0.21571036
37	0xbee25533	-0.44205627
38	0x3e2bc8d5	0.1677583
39	0xbdbb51a4	-0.09146431
40	0xbe83eacc	-0.25765073
41	0x3e8b31e7	0.2718651
42	0xbeb5b568	-0.35489964
43	0xbe41a6e9	-0.18911327
44	0x3e27c1bc	0.16382498
45	0x3e8b7302	0.27236181
46	0xbe642cb4	-0.22282678
47	0xbdf55c91	-0.11980546
48	0xbe929da2	-0.2863589
49	0xbe330d8f	-0.17485641
50	0x3dc40069	0.09570391
51	0xbe26e882	-0.16299632
52	0xbe0ecc92	-0.13945225
53	0x3e41b0e1	0.1891513
54	0x3dc4c776	0.09608357
55	0xbd782ef3	-0.06059165
56	0xbe5bcec6	-0.21465597
57	0xbc32ddb9	-0.010917121
58	0xbe810363	-0.25197896
59	0x3ec2b15f	0.38025948
60	0xbdc34992	-0.09535517
61	0x3e95ba48	0.29243684
62	0x3cdf11fa	0.027230252
63	0x3e8789b2	0.2647224
64	0xbdcd5bcd	-0.10027275
65	0xbe8d0861	-0.27545455
66	0xbd03765b	-0.032095294
67	0xbe0b718d	-0.13617535
68	0xbe4969f1	-0.1966932
69	0xbe20d59e	-0.15706488
70	0x3d33b329	0.043872032
71	0x3e9073c2	0.28213316
72	0xbe79dd2b	-0.24400775
73	0x3e5a629e	0.21326682
74	0x3e06b72c	0.13155812
75	0xbe1039ec	-0.14084595
76	0x3d92d0f7	0.07168763
77	0x3e17db5e	0.14829776
78	0x3df9216c	0.12164578
79	0xbda0103c	-0.078155965
80	0xbd9d03dc	-0.07666752
81	0xbe320cf6	-0.17387757
82	0xbe755da2	-0.239615
83	0xbea3215e	-0.31861395
84	0xbdafe25a	-0.08588095
85	0xbd4b64c4	-0.049656644
86	0x3cdd74b4	0.027033187
87	0xbdb593b2	-0.08866061
88	0xbea1720b	-0.3153232
89	0xbd21ccb7	-0.039501872
90	0xbe99ebc8	-0.300627
91	0x3eaab0a0	0.3333788
92	0xbeb0088e	-0.34381527
93	0x3ccabd47	0.024748458
94	0x3c5bdd0c	0.013419401
95	0xbebbc17c	-0.36671054
96	0x3e1fbd48	0.15599549
97	0x3db5e420	0.08881402
98	0xbe9d453a	-0.30716878
99	0xbea8195b	-0.32831845
100	0x3e652350	0.22376752
101	0xbe8d0a29	-0.27546814
102	0xbd510a3b	-0.051035147
103	0xbe031cd3	-0.12803964
104	0x3e887e31	0.26658776
105	0x3d88efb3	0.06686344
106	0xbd9d6afc	-0.07686421
107	0xbe9e6fc9	-0.3094466
108	0xbe9be501	-0.30448154
109	0x3e8f6327	0.28005335
110	0x3dfa3f7d	0.12219141
111	0xbcf2077c	-0.029544584
112	0xbf0c8827	-0.5489525
113	0xbe70d1df	-0.2351756
114	0xbbc9076c	-0.006134918
115	0xbbc05b4d	-0.005870259
116	0xbdf48ac2	-0.119405285
117	0xbe5a8fa1	-0.21343853
118	0xbeae9a9b	-0.3410233
119	0xbdaf6265	-0.08563689
120	0xbd9a91e0	-0.07547355
121	0xbea836f9	-0.3285444
122	0x3e356bce	0.17716905
123	0x3e8f50bf	0.27991292
124	0xbe7619b0	-0.24033237
125	0x3e4cec9c	0.20012134
126	0x3e57613b	0.21033184
127	0xbd6aa159	-0.05728278
128	0x3de3d678	0.11124891
129	0xbe49385b	-0.19650404
130	0xbe9bb011	-0.30407766
131	0xbec6da93	-0.38838634
132	0x3da22e52	0.07918991
133	0xbe69dce5	-0.22838171
134	0x3e817d1a	0.25290757
135	0xbe4f819d	-0.20264287
136	0x3df0a34b	0.11749896
137	0x3ea1035a	0.3144787
138	0x3d942bea	0.072349384
139	0xbeaa908b	-0.33313403
140	0xbe70a7bc	-0.23501486
141	0xbe9fd46a	-0.31216747
142	0xbe659bca	-0.2242271
143	0xbe12248c	-0.14271754
144	0xbd7ee769	-0.06223241
145	0xbe7187b0	-0.23586917
146	0xbe2a6ae5	-0.1664234
147	0x3e9db895	0.30804887
148	0x3e7b0ab8	0.24515808
149	0x3e29f97a	0.16599074
150	0x3e1aa43a	0.1510171
151	0x3df3f468	0.11911851
152	0xbdca7acc	-0.09886703
153	0xbe8c0ea4	-0.2735492
154	0xbea33ea3	-0.31883726
155	0xbd01e08c	-0.031708285
156	0x3e23094d	0.15921517
157	0x3a8cc765	0.0010740577
158	0xbe86c322	-0.2632075
159	0x3e8ee88f	0.27911803
160	0x3e644711	0.22292735
161	0x3e5e3e89	0.21703543
162	0x3d731537	0.059346404
163	0xbe1dea0e	-0.15421316
164	0xbe6e990e	-0.23300573
165	0xbe7b03c4	-0.24513155
166	0x3d675ab6	0.056482993
167	0xbdf55d0d	-0.11980639
168	0xbcf2bcae	-0.029630985
169	0x3e8443d5	0.25833002
170	0x3eb8dede	0.36107534
171	0x3c14e6cc	0.009088229
172	0xbe71b6d9	-0.23604907
173	0x3ea421b2	0.32056957
174	0xbc6d1fbd	-0.014472899
175	0x3dd4df36	0.103941366
176	0x3d3e4ab3	0.046457957
177	0xbe485f89	-0.19567694
178	0x3dd64d0f	0.104639165
179	0xbea6c2a4	-0.32570374
180	0x3eb376ea	0.35051662
181	0x3c3c3aff	0.011488675
182	0x3e16de0e	0.14733145
183	0xbe0686cd	-0.1313736
184	0xbea6b8a1	-0.32562736
185	0x3d9589b9	0.07301659
186	0xbe5369fd	-0.206459
187	0x3e8b619d	0.2722291
188	0x3d83d2e0	0.064367056
189	0xbe5e90b7	-0.21734892
190	0x3e261286	0.16218004
191	0x3e8e69d8	0.27815127
192	0x3d1f075d	0.03882538
193	0xbcb26423	-0.021776265
194	0xbd8fbd35	-0.0701851
195	0xbe793b6c	-0.24339074
196	0xbc4fb829	-0.012678185
197	0x3e83a839	0.2571428
198	0xbe8ecd46	-0.27890986
199	0x3e2f0769	0.1709267
200	0x3e5b8821	0.21438648
201	0xbdec1b2d	-0.11528621
202	0x3cae8497	0.021303458
203	0x3e814964	0.25251305
204	0xbd877eb8	-0.066159666
205	0xbe67b461	-0.22627403
206	0xbe239cbf	-0.15977763
207	0xbe884e77	-0.26622364
208	0x3c83bf18	0.016082332
209	0xbe329428	-0.1743933
210	0xbcfc7496	-0.030817311
211	0x3e811e8c	0.25218618
212	0x3dedc9db	0.116107665
213	0xbe6dd067	-0.2322403
214	0x3cc552b8	0.024087295
215	0xbe1fc741	-0.15603353
216	0xbe923eee	-0.28563637
217	0xbe1f8926	-0.15579662
218	0xbe7b84b8	-0.24562347
219	0xbe784c27	-0.242478
220	0x3c776b21	0.015101225
221	0x3e97a7d7	0.2962024
222	0xbdf57f80	-0.11987209
223	0x3df64c0d	0.12026224
224	0xbe00893c	-0.12552351
225	0xbbbd9a21	-0.005786196
226	0x3dc8244c	0.09772548
227	0x3ee76b91	0.45199254
228	0x3c4d0b0a	0.012514839
229	0xbe140633	-0.1445549
230	0x3e00ff55	0.12597401
231	0xbea047c2	-0.31304747
232	0x3d6a960f	0.057272013
233	0x3c343a67	0.011000252
234	0xbe88ea82	-0.26741415
235	0x3e927c33	0.2861038
236	0x3ba8277f	0.0051316614
237	0xbe7edeb7	-0.24889646
238	0x3e66153d	0.2246904
239	0x3c28cea6	0.010303175
240	0x3ed2fb34	0.41207278
241	0x3e825ab2	0.2545982
242	0xbd0a0eac	-0.0337054
243	0xbe95e8f9	-0.29279307
244	0x3e5c7ba8	0.21531546
245	0xbd5c2bb9	-0.053752635
246	0x3e251f33	0.16125183
247	0xbe87e8ea	-0.26544887
248	0x3e274774	0.16335851
249	0xbe41fbbd	-0.18943687
250	0x3e9f4031	0.31103662
251	0xbe878e6e	-0.26475853
252	0x3e8652f8	0.26235175
253	0x3e9cc10d	0.30616036
254	0x3e3bf14d	0.18353768
255	0xbbe5f78f	-0.0070180367

arith.constant5 f4 [16]
0	0xbe29f643	-0.16597848
1	0xbe6233a1	-0.22090007
2	0xbdc31314	-0.09525123
3	0xbe7395c7	-0.23787604
4	0xbe17fe24	-0.1484304
5	0x3d486190	0.048921168
6	0x3c6702e3	0.014099809
7	0x3df0e4e0	0.117624044
8	0x3e5a2546	0.21303281
9	0xbe3ed3c0	-0.18635464
10	0x3e894525	0.26810566
11	0x3e7d6260	0.24744558
12	0x3d3cb10a	0.046067275
13	0x3e118208	0.14209759
14	0x3e15ce02	0.14629367
15	0x3de8ad1b	0.11361142

arith.constant6 f4 [32, 64]
0	0xbcd059de	-0.025433477
1	0x3d94d4b6	0.07267134
2	0x3e425b82	0.1898022
3	0xbe39bbaf	-0.18138002
4	0x3d76b1b5	0.06022807
5	0xbc3d4d79	-0.011554115
6	0xbdefa63d	-0.11701629
7	0xbe027967	-0.12741624
8	0xbdf16e53	-0.11788621
9	0x3e50f9ef	0.20407842
10	0xbd03a63d	-0.03214096
11	0x3e266866	0.16250762
12	0xbe075bf0	-0.13218665
13	0x3e09fd20	0.13475466
14	0x3c070ce0	0.008242816
15	0xbcbb0423	-0.022829121
16	0xbdbbe44d	-0.09174404
17	0x3d885b4c	0.066580385
18	0x3e68c72a	0.22732225
19	0xbdfa25ff	-0.122142784
20	0x3dce6b44	0.10079053
21	0x3d8179e4	0.06322077
22	0x3dd3e0cb	0.1034561
23	0x3e19503e	0.14972016
24	0xbd18ec40	-0.03733468
25	0x3e3ff370	0.18745208
26	0x3e82a9ab	0.2552007
27	0x3a7fa204	0.000975162
28	0xbe01bec1	-0.12670423
29	0xbb440dd1	-0.0029915462
30	0x3c061612	0.008183973
31	0xbdc9c626	-0.09852247
32	0xbd46a0a1	-0.04849303
33	0xbd9f4c2e	-0.07778202
34	0x3d6eb2d1	0.058276
35	0x3e4521f4	0.19251233
36	0xbe47b0bd	-0.19501014
37	0x3e720e46	0.23638257
38	0x3e9781b9	0.29591158
39	0xbde4208c	-0.1113902
40	0xbd943af5	-0.07237808
41	0x3e4a9243	0.19782357
42	0x3c00b1d5	0.007854898
43	0xbe280bda	-0.16410771
44	0x3e5af792	0.21383503
45	0x3e10595b	0.14096586
46	0xbd0adb09	-0.033900294
47	0x3d8ee65d	0.06977532
48	0x3d7b8403	0.061405193
49	0x3e146422	0.14491323
50	0x3e39511a	0.18097344
51	0x3e19088e	0.1494467
52	0x3dca65c4	0.098826915
53	0xbd5e00ba	-0.05419991
54	0xbdbd3361	-0.092383154
55	0x3e2a6393	0.16639547
56	0xbd2f9503	-0.042866718
57	0x3e59675a	0.21230832
58	0xbe2d8998	-0.16947019
59	0x3d0676d0	0.032828152
60	0x3e19ae11	0.15007807
61	0xbca0af3c	-0.019614808
62	0x3e58cced	0.21171923
63	0x3df41375	0.11917774
64	0x3df02fb9	0.117278524
65	0x3d06002e	0.032715015
66	0x3e1b513d	0.15167709
67	0xbdd22d99	-0.10262603
68	0x3e250fb8	0.16119277
69	0x3d7088c3	0.058724176
70	0x3e31a3a7	0.17347585
71	0xbd1b827e	-0.037966244
72	0xbab53df5	-0.0013827669
73	0xbe2cf9c7	-0.16892157
74	0xbd9fab0e	-0.07796298
75	0xbe34c423	-0.17652945
76	0xbcf22933	-0.029560661
77	0xbd1294ac	-0.035786316
78	0x3de28054	0.11059633
79	0xbd96b200	-0.073581696
80	0x3e580a89	0.21097769
81	0x3d80eb8f	0.06294929
82	0x3e0085b5	0.12551005
83	0x3e150b2e	0.14555046
84	0x3dac0574	0.083994776
85	0xbe0a26f2	-0.13491419
86	0x3d336d4c	0.043805405
87	0xbdead2df	-0.11466002
88	0x3e37a9a7	0.17935811
89	0xbe4d6088	-0.20056355
90	0xbd804329	-0.0626281
91	0x3d160e4e	0.036634736
92	0xbdf4f56e	-0.119608745
93	0xbe2fb477	-0.17158686
94	0xbc7f8c3b	-0.015597398
95	0xbbafc691	-0.005364247
96	0x3e3b11f2	0.18268564
97	0x3e101f27	0.14074384
98	0xbc9e8bd1	-0.019353779
99	0x3e504091	0.2033713
100	0xbdf42b97	-0.119223766
101	0xbe2ac009	-0.16674818
102	0x3cac2c29	0.021017151
103	0x3d82ac27	0.06380492
104	0x3e4d4d69	0.20049061
105	0x3e493816	0.19650301
106	0xbc02f523	-0.007993015
107	0x3d88d09b	0.06680413
108	0xbd8c445c	-0.06848976
109	0x3b4cfcb0	0.0031278543
110	0x3b057c05	0.002036811
111	0xbe0a408d	-0.13501187
112	0x3d44485c	0.04792057
113	0x3ddcb4e1	0.107766874
114	0x3e3546e9	0.17702831
115	0xbe1679e7	-0.1469494
116	0xbcea510c	-0.0286031
117	0xbdfb0c0b	-0.122581564
118	0x3ddf00a3	0.10888793
119	0x3d44eb2a	0.048075832
120	0xbc054cb3	-0.008135962
121	0xbd2d8cf8	-0.042370766
122	0x3e8fe910	0.281075
123	0x3e45111b	0.19244806
124	0x3e056670	0.13027358
125	0x3e1886e9	0.14895214
126	0x3e692f80	0.22772026
127	0xbe1e7437	-0.1547402
128	0x3d54a539	0.05191538
129	0x3e5829bf	0.21109675
130	0x3e4a9c45	0.19786175
131	0xbdb25bca	-0.087089136
132	0xbb25f769	-0.002532447
133	0xbcfe8c67	-0.031072808
134	0x3990ba33	0.0002760455
135	0x3e0aabf6	0.1354216
136	0x3e31f707	0.1737939
137	0x3e8669bb	0.2625254
138	0xbe4c9f89	-0.19982733
139	0xbc30bd32	-0.010787295
140	0xbe31a029	-0.17346253
141	0xbe1bc0fb	-0.15210335
142	0x3e6095aa	0.21932092
143	0x3d9a93db	0.075477324
144	0x3da87beb	0.082267605
145	0x3d82a720	0.06379533
146	0xbe0ea017	-0.13928257
147	0x3cf4c818	0.029880568
148	0x3d8e04e8	0.069345295
149	0xbda695b0	-0.081340194
150	0x3e816f8d	0.2528042
151	0x3da4d943	0.08049252
152	0x3e869184	0.26282895
153	0xbdb2a19a	-0.08722229
154	0x3dc78123	0.09741428
155	0xbe0ed58f	-0.13948654
156	0x3e600b18	0.21879232
157	0x3dc2cbb2	0.09511508
158	0x3d9f50f2	0.07779111
159	0x3dd10e2b	0.102077805
160	0x3e1d9f4a	0.15392795
161	0x3e08ad79	0.13347425
162	0x3d485ec5	0.048918504
163	0xbd814ab6	-0.06313078
164	0xbdd7c1bc	-0.10534999
165	0x3e09ee11	0.13469721
166	0xbd29d1a4	-0.041459695
167	0xbd17059c	-0.036870584
168	0x3e964281	0.29347613
169	0xbe33e3fa	-0.17567435
170	0xbcfe2bf7	-0.031026823
171	0xbc569b14	-0.013098497
172	0x3e4886bb	0.19582646
173	0xbe013117	-0.12616383
174	0x3daacb1b	0.083395205
175	0xbe4a4006	-0.19750986
176	0x3d198de1	0.037488822
177	0xbddf6303	-0.10907557
178	0x3e1ccea3	0.153132
179	0x3e1c1dce	0.15245745
180	0xbc4c19b0	-0.012457296
181	0x3e1c7044	0.15277201
182	0x3e2f0725	0.17092569
183	0x3e4d3066	0.20037994
184	0xbe275717	-0.16341816
185	0x3df6a3b0	0.1204294
186	0xbe6447ec	-0.22293061
187	0x3e26e358	0.16297662
188	0xbac1582d	-0.001475101
189	0xbc01d247	-0.007923669
190	0xbd2498df	-0.04018485
191	0x3e17f49d	0.14839406
192	0xbd195625	-0.03743567
193	0xbddf1345	-0.10892347
194	0x3dfbe3b9	0.12299294
195	0x3e0203e3	0.12696795
196	0x3e53bea7	0.20678197
197	0x3e533cf4	0.2062872
198	0x3d5cc1a3	0.053895604
199	0x3dabaf31	0.083830245
200	0x3e6a836b	0.22901694
201	0x3d6546d0	0.055975735
202	0x3d703dff	0.058652874
203	0x3d949d6d	0.07256589
204	0xbe1bb1eb	-0.15204589
205	0x3dc23e03	0.09484484
206	0x3e75490e	0.2395365
207	0x3dcd340f	0.10019695
208	0xbd507a28	-0.050897747
209	0x3e59a7d9	0.21255435
210	0xbd0f6f3c	-0.03501819
211	0x3c882e1f	0.016623555
212	0x3d7e2ac6	0.06205251
213	0x3d31a02e	0.04336565
214	0x3d056838	0.032570094
215	0x3e6741a2	0.2258363
216	0x3e07cab8	0.13260925
217	0x3dabeb7a	0.08394523
218	0x3dd05511	0.10172475
219	0xbd90c89b	-0.070695125
220	0x3d9f5bb7	0.07781165
221	0x3bb44466	0.005501318
222	0xbcf6638d	-0.030076766
223	0xbdb3f99c	-0.087878436
224	0x3d0083bb	0.031375628
225	0xbe59a5d6	-0.21254668
226	0x3bc5b656	0.006033699
227	0xbdad24ff	-0.08454322
228	0xbda762f6	-0.08173172
229	0x3e47c030	0.19506907
230	0xbb8e3325	-0.004339593
231	0xbd08b907	-0.03337958
232	0x3e9fcbdf	0.3121023
233	0xbd9b3d83	-0.07580092
234	0x3e57676e	0.21035549
235	0xbd01404d	-0.031555463
236	0xbd4ee0d7	-0.050507393
237	0xbe26a099	-0.162722
238	0x3ea5af59	0.32360342
239	0xbe030bbf	-0.1279745
240	0x3d2b42cf	0.04181176
241	0x3e885775	0.26629224
242	0x3e463fdc	0.19360298
243	0xbdc2b9d2	-0.09508099
244	0x3c0f433b	0.008744056
245	0x3ef1c414	0.47219908
246	0x3e850e93	0.25987682
247	0x3e92b216	0.28651494
248	0x3d0b5a53	0.034021687
249	0x3dc93455	0.09824435
250	0x3e3a81a9	0.18213524
251	0x3dad9c00	0.0847702
252	0x3cbbcbd4	0.022924341
253	0xbb4b1737	-0.003098918
254	0x3e66d77e	0.22543141
255	0xbcc33fb6	-0.02383409

arith.constant7 f4 [32]
0	0x3dfd399d	0.123645045
1	0x3d7963ad	0.060886074
2	0x3e8becab	0.27329
3	0x3f096a18	0.5367751
4	0xbc266567	-0.010156012
5	0x3f012a00	0.5045471
6	0xbdde62f1	-0.10858715
7	0xbe13a1a7	-0.14417134
8	0x3e16ed4f	0.14738964
9	0xbe277848	-0.16354477
10	0x3efa9e27	0.48948786
11	0x3e8680cf	0.26270148
12	0x3e12b103	0.14325337
13	0xbe17b868	-0.14816439
14	0x3ea01922	0.31269175
15	0xbdb32380	-0.087470055
16	0x3e8e4a9f	0.27791306
17	0x3e60e082	0.21960643
18	0xbdbdc944	-0.09266904
19	0xbe088883	-0.13333325
20	0xbdf08968	-0.11744958
21	0xbdeaa48e	-0.114571676
22	0x3e9f6125	0.31128803
23	0x3c3d7d3a	0.011565501
24	0xbd4dbecc	-0.050230786
25	0x3ddb2f6a	0.10702403
26	0xbe073606	-0.13204202
27	0xbd490f9d	-0.049087156
28	0x3ebdc0b1	0.37061074
29	0xbca31a45	-0.019909987
30	0xbcd21e2a	-0.025649149
31	0xbd0b9de1	-0.034086112

arith.constant8 f4 [64, 20]
0	0xbc389efd	-0.0112683745
1	0x3e48032a	0.19532457
2	0x3da92e9e	0.08260845
3	0x3d4ce944	0.050027147
4	0x3e29611c	0.1654095
5	0x3e3d9b0d	0.18516178
6	0x3dae95e9	0.08524687
7	0xbd0e6ca0	-0.03477156
8	0x3da968f5	0.08271972
9	0x3e63977d	0.22225757
10	0x3e058d3d	0.1304216
11	0x3e6ec606	0.23317727
12	0x3d41b14a	0.047288217
13	0xbc974944	-0.018467553
14	0xbd6e23b4	-0.058139518
15	0xbe1298b2	-0.14316061
16	0xbe47df9d	-0.19518895
17	0xbca6b182	-0.020348314
18	0xbd8a5706	-0.0675488
19	0x3dc95741	0.098310955
20	0x3e81fdbc	0.25388896
21	0xbe6df134	-0.23236543
22	0xbd1eff02	-0.038817413
23	0xbdc06719	-0.09394664
24	0xbe465938	-0.19369972
25	0x3d66bccd	0.0563324
26	0xbe55e7e7	-0.20889245
27	0x3dcd5863	0.10026624
28	0x3d337bca	0.043819226
29	0xbe264620	-0.16237688
30	0xbc9cd31b	-0.019143632
31	0x3e554ae0	0.20829344
32	0xbded4bc3	-0.11586716
33	0x3e540294	0.20704108
34	0xbe321f55	-0.17394765
35	0xbdcd7555	-0.10032145
36	0x3dab1384	0.08353332
37	0x3e801d60	0.2502241
38	0x3dafdec9	0.08587415
39	0x3e81c736	0.25347298
40	0x3ddc15df	0.10746359
41	0xbda30755	-0.07960383
42	0x3d8a42ff	0.0675106
43	0xbe6c0268	-0.23047793
44	0xbe932fd9	-0.28747442
45	0x3d4bf582	0.04979468
46	0x3cb7fa23	0.022458142
47	0x3dd6fd93	0.10497584
48	0xbe1a90e8	-0.1509434
49	0xbdb4603a	-0.08807416
50	0x3db4a8a7	0.088212304
51	0x3e308007	0.17236339
52	0x3e1d0c94	0.1533683
53	0xbd880a01	-0.06642533
54	0x3e2df2eb	0.16987197
55	0xbccc1e01	-0.02491665
56	0x3e8fd3c7	0.2809126
57	0x3d08c5f7	0.03339192
58	0xbcf4b77f	-0.029872654
59	0xbe0616fe	-0.13094708
60	0xbe3c5137	-0.18390356
61	0x3e534680	0.20632362
62	0x3e111eaf	0.14171861
63	0xbdb4e06a	-0.08831866
64	0x3d1365e5	0.035985846
65	0x3d9511b7	0.072787695
66	0xbe736d4b	-0.2377216
67	0xbd904ff1	-0.070464976
68	0x3be69894	0.0070372317
69	0x395bd8da	0.00020966251
70	0xbd4cfb6f	-0.050044473
71	0x3df9953b	0.121866666
72	0x3d06e9ba	0.032937743
73	0x3e600a75	0.21878989
74	0xbe54e2a1	-0.20789577
75	0xbe3d871b	-0.1850857
76	0x3d23925b	0.039934497
77	0xbd4aea43	-0.049539816
78	0x3e8a3870	0.26996183
79	0x3dafb913	0.08580222
80	0xbe169c70	-0.14708114
81	0x3e1759af	0.14780305
82	0x3e3420b1	0.17590596
83	0xbe6398a8	-0.22226202
84	0xbe5f2a2e	-0.21793434
85	0x3e6b3c10	0.22972131
86	0xbd5a53bb	-0.053302508
87	0xbd5efc52	-0.05443985
88	0x3e2bd509	0.16780485
89	0x3c8532cb	0.016259572
90	0xbce6b810	-0.02816394
91	0x3d1ea038	0.038727015
92	0x3d70f4b6	0.058827125
93	0xbcf22173	-0.029556965
94	0xb9cb70f9	-0.00038803348
95	0x3c8e8579	0.01739763
96	0xbbc06a74	-0.005872065
97	0xbe0b1388	-0.1358167
98	0xbd0b3538	-0.0339863
99	0xbe032615	-0.12807496
100	0x3e303d0e	0.1721079
101	0x3d96ea36	0.07368891
102	0xbe702214	-0.234505
103	0x3e80aa50	0.25129938
104	0x3e00775b	0.1254553
105	0x3e6c5b94	0.2308181
106	0x3c2b265c	0.010446157
107	0xbc9a27fd	-0.018817896
108	0xbe808d38	-0.2510774
109	0xbd8e48f5	-0.06947509
110	0x3e315eb6	0.17321286
111	0xbd6b6d0b	-0.05747704
112	0xbe46a94e	-0.19400522
113	0xbd9d5098	-0.07681388
114	0xbe7106cf	-0.23537754
115	0x3d97c2b3	0.07410183
116	0xbe6cd51d	-0.23128171
117	0xbdcb4fd9	-0.09927339
118	0x3dde6e6b	0.10860904
119	0xbcfad296	-0.030617993
120	0x3caf3695	0.021388331
121	0x3e8dd4f2	0.27701527
122	0x3e4c5293	0.19953375
123	0x3e41fd66	0.1894432
124	0xbe2ed453	-0.17073183
125	0xbe45c64f	-0.1931393
126	0x3d651690	0.05592972
127	0x3d7a4167	0.06109753
128	0xbe63b419	-0.2223667
129	0xbcc78bf0	-0.02435872
130	0x3e1d8232	0.15381697
131	0x3da1127e	0.07864855
132	0x3dbc2597	0.09186857
133	0xbc8ee323	-0.017442292
134	0x3dbb6d56	0.091517136
135	0xbd7a04b8	-0.061039656
136	0xbc65e821	-0.014032395
137	0x3e048109	0.12939848
138	0x3da53dbb	0.08068415
139	0x3d28bfd8	0.04119858
140	0x3db8fcc7	0.090325885
141	0xbe9a0c24	-0.30087388
142	0xb87c06a2	-6.008766e-05
143	0xbcaaf5fc	-0.020869248
144	0x3e16ba9d	0.14719625
145	0xbe451307	-0.1924554
146	0xbd769302	-0.06019879
147	0x3e0cd0bc	0.13751501
148	0x3ca5e374	0.02025006
149	0xbe16b6bc	-0.14718145
150	0xbe384841	-0.17996313
151	0xbdf9b134	-0.12192002
152	0xbe765e70	-0.24059463
153	0xbe0b5b82	-0.13609126
154	0x3e3abade	0.18235347
155	0x3e83bd25	0.25730243
156	0xbe2f5c0e	-0.1712496
157	0x3d873b99	0.06603164
158	0xbdc86832	-0.09785499
159	0x3e19e43c	0.15028471
160	0x3d211ca1	0.039333943
161	0xbb08bc69	-0.0020864254
162	0x3dda4efa	0.10659595
163	0x3e12b0e4	0.14325291
164	0x3e3c03d8	0.18360841
165	0x3e458e04	0.19292456
166	0x3e8ad92f	0.27118823
167	0x3e469562	0.19392923
168	0xbd6576e9	-0.056021605
169	0x3e3cad50	0.18425488
170	0x3c89abf6	0.01680563
171	0x3e242390	0.16029191
172	0x3e22c98b	0.15897195
173	0x3dde0b18	0.1084196
174	0xbe00067f	-0.12502478
175	0x3e80a89a	0.25128633
176	0xbe575540	-0.21028614
177	0xbe1946da	-0.14968434
178	0xbe294e08	-0.16533673
179	0x3d77ca7f	0.06049585
180	0xbd04a562	-0.032384284
181	0x3e028ee3	0.1274982
182	0xbde46835	-0.111526884
183	0x3d07df7a	0.03317211
184	0x3e386451	0.18007018
185	0x3c82163c	0.015879743
186	0x3dada1db	0.08478137
187	0x3cff5d9f	0.031172572
188	0x3e611e73	0.21984272
189	0x3c38bbfc	0.011275288
190	0xbe00fde2	-0.12596849
191	0xbda81f45	-0.08209089
192	0xbca336c5	-0.019923577
193	0x3e3d28d6	0.18472609
194	0x3c31d7f4	0.01085471
195	0x3de2501f	0.11050438
196	0x3e05a1c2	0.13049987
197	0xbd0c0f17	-0.03419408
198	0xbe32362a	-0.17403474
199	0x3e1bddf8	0.15221393
200	0x3e7465b6	0.23866925
201	0xbdc00e4c	-0.09377727
202	0x3e173fc9	0.14770426
203	0x3e31ad95	0.17351373
204	0xbe42f2a0	-0.19037867
205	0xbe333e76	-0.17504296
206	0x3e64fbc8	0.22361672
207	0xbe22c6f3	-0.15896206
208	0xbe4d7a42	-0.20066169
209	0xbda5178b	-0.08061131
210	0x3e238ecb	0.1597244
211	0x3d25a547	0.040440824
212	0x3dff0554	0.12452188
213	0xbe42be1d	-0.19017835
214	0x3e2e13da	0.1699976
215	0xbe5d8952	-0.21634415
216	0xbd311457	-0.04323229
217	0x3e093aa4	0.13401276
218	0xbd0cf339	-0.034411643
219	0x3e054dd0	0.13017964
220	0x3cf5b3aa	0.029992897
221	0x3daf02a6	0.08545427
222	0x3dd6db8a	0.104910925
223	0xbc3a8bd7	-0.0113858795
224	0xbb445ae8	-0.002996141
225	0x3dfd19a6	0.12358408
226	0xbe78eb9d	-0.2430863
227	0x3cdc27eb	0.026874503
228	0x3d543197	0.051805105
229	0xbccdf73e	-0.025142308
230	0x3e1a45e9	0.15065731
231	0x3d137de0	0.036008716
232	0xbe294708	-0.16531003
233	0xbdcdc389	-0.10047061
234	0x3ba2bb43	0.004966171
235	0x3d240beb	0.04005043
236	0x3e02126c	0.1270234
237	0x3decfb18	0.1157133
238	0xbd822fb6	-0.063567564
239	0x3df6de45	0.12054113
240	0x3e41d974	0.18930608
241	0xbe57d08d	-0.2107565
242	0x3e65912b	0.22418658
243	0xbe541d85	-0.20714386
244	0x3d395e1b	0.04525576
245	0x3e64eda0	0.22356272
246	0xbe6d7abb	-0.23191349
247	0x3e2f421b	0.17115061
248	0x3e3b226f	0.18274854
249	0xbe87cdec	-0.26524293
250	0xbde35c97	-0.111016445
251	0xbe0ec19a	-0.1394104
252	0xbdd48b5a	-0.10378142
253	0xbde4e4be	-0.111764416
254	0xbd867a50	-0.06566298
255	0x3d34c456	0.044132553

arith.constant9 f4 [64]
0	0x3d279b16	0.040919386
1	0xbc2e4fae	-0.010639114
2	0x3db1dd76	0.086848184
3	0x3c91213c	0.017716043
4	0xbcb0f464	-0.02160091
5	0xbc907a3f	-0.017636416
6	0xbc1d4576	-0.00959908
7	0xbc6559d0	-0.013998464
8	0x3c9ff661	0.019526662
9	0x3c3699a7	0.011145032
10	0xbcba5f0d	-0.022750402
11	0xbd83aafb	-0.06429096
12	0xbd102cc0	-0.035198927
13	0x3e34eaef	0.17667745
14	0x3c914661	0.017733755
15	0xbd294830	-0.04132861
16	0xbc4261e1	-0.011864156
17	0x3d5922f7	0.05301186
18	0x3bb0547f	0.0053811665
19	0x3c4af2d7	0.012386999
20	0xbc9620f7	-0.018326266
21	0xbd271806	-0.040794395
22	0x3cbc2d8e	0.02297094
23	0x3da96d86	0.08272843
24	0xbcb4eb9a	-0.022085
25	0xbd07c84c	-0.033150002
26	0x3c6a59e5	0.014303659
27	0xbd2e68c8	-0.042580396
28	0x3e94121f	0.28920075
29	0x3c522fca	0.012828777
30	0xbcbd704a	-0.023124833
31	0x3bd71d48	0.00656477
32	0x3c7568ce	0.014978601
33	0xbc8b7767	-0.017024709
34	0xbbc4b921	-0.0060035144
35	0x3d94400a	0.07238777
36	0x3cfff8cb	0.031246563
37	0x3c80be19	0.015715646
38	0x3d2e4ab1	0.0425517
39	0x3d604bf6	0.054759942
40	0xbd16990b	-0.036767047
41	0xbda8e686	-0.08247094
42	0x3d4ea4a1	0.05044997
43	0x3d8c6427	0.0685504
44	0xbd137669	-0.036001597
45	0x3dbb66f4	0.09150496
46	0xbcde02f1	-0.027101012
47	0xbd15a867	-0.036537554
48	0x3d01d32d	0.031695534
49	0x3d364880	0.044502735
50	0xbcbd1138	-0.0230795
51	0x3dcb0877	0.09913724
52	0x3da8456c	0.08216366
53	0x3caf2877	0.0213816
54	0x3d3b0e38	0.045667857
55	0x3d36e226	0.044649266
56	0x3e7e125c	0.24811691
57	0xbaa968e9	-0.0012924942
58	0x3cb19ee2	0.021682207
59	0x3d824f9d	0.06362841
60	0x3d162903	0.036660206
61	0x3d2d202c	0.04226701
62	0x3d020ce1	0.031750564
63	0x3d957eb5	0.07299558

arith.constant10 f4 [64]
0	0xbcd9ab33	-0.026570892
1	0x3b54bbb1	0.0032460506
2	0xbcb4639d	-0.022020156
3	0x3d8728a0	0.065995455
4	0xbcb0d3c3	-0.02158535
5	0x3c89c800	0.016819
6	0x3c637cb4	0.013884712
7	0xbbaa8587	-0.005203906
8	0xbc6ec8d1	-0.014574246
9	0x3d77b4ba	0.06047509
10	0x3d00871e	0.031378858
11	0x3cac7f39	0.021056758
12	0xbbb71f79	-0.0055884686
13	0x3d3f4f64	0.046706572
14	0x3d75d00c	0.060012862
15	0x3d0a3421	0.03374112
16	0xbc22d97e	-0.0099395495
17	0x3d4a1b48	0.049342424
18	0x3c0958c0	0.008382976
19	0xbc981096	-0.018562596
20	0xbc8134cd	-0.015772248
21	0x3b7e668f	0.0038818454
22	0x3d86319d	0.06552432
23	0x3d2dfcf8	0.042477578
24	0x3db19076	0.08670132
25	0xbb6a3a1a	-0.0035740198
26	0x3d250f30	0.040297687
27	0x3c4d6d20	0.012538224
28	0xbcb30d61	-0.021856965
29	0x3d51a6db	0.051184516
30	0xbd10fefe	-0.03539943
31	0x3d807995	0.0627319
32	0x3be373f2	0.006941312
33	0xbc8a753d	-0.016901607
34	0xbc65ad1e	-0.014018325
35	0x3d546ed9	0.051863525
36	0xbd284426	-0.041080616
37	0x3ba287c1	0.004960031
38	0x3e1d4bc0	0.15360928
39	0x3cf42fb7	0.029807908
40	0x3dbf3da9	0.093379326
41	0xbc7bd39b	-0.015370275
42	0xbb871bee	-0.0041232025
43	0x3d3c4ace	0.045969777
44	0x3d36004c	0.044433877
45	0xbbd77022	-0.0065746466
46	0x3d29569d	0.041342366
47	0x3bf50afe	0.007478117
48	0xbcdca956	-0.026936214
49	0x3d98779b	0.07444688
50	0x3bc30108	0.0059510507
51	0xbca9fade	-0.020749506
52	0x3d1ea348	0.038729936
53	0x3d5d7006	0.054061912
54	0x3dfccd1a	0.123438075
55	0x3db187ad	0.08668456
56	0x3dc00392	0.09375681
57	0x3db95279	0.090489335
58	0x3e33a091	0.1754172
59	0x3c9d64e5	0.01921315
60	0x3b92bbf0	0.0044779703
61	0xbc76bb5d	-0.015059319
62	0xbc6931dd	-0.01423308
63	0xbbc993e0	-0.0061516613

food_recommendation_model_1/sequential_1_2/dense_3_1/MatMul f4 [64, 7]
0	0x3c5c9b01	0.01346469
1	0xbe0253c2	-0.12727264
2	0xbc99e846	-0.018787514
3	0x3cd49b4c	0.025952958
4	0x3e62c5d0	0.22145772
5	0x3db87d1c	0.09008238
6	0xbc52a62f	-0.012857004
7	0xbcbd654f	-0.023119597
8	0x399d5ba2	0.00030013645
9	0xbd306305	-0.043063182
10	0x3d950bbb	0.07277628
11	0x3e028892	0.1274741
12	0x3e9a3501	0.30118564
13	0x3e0fa630	0.14028239
14	0xbd823335	-0.06357423
15	0xbb65c330	-0.0035058968
16	0xbdbea778	-0.09309286
17	0xbd4ec637	-0.050482
18	0xbe63ce09	-0.22246565
19	0xbcdd6ba9	-0.027028875
20	0xbe3829e1	-0.17984726
21	0x3d3a4fe6	0.045486353
22	0xbd4e69ab	-0.05039374
23	0x3e6d1e4b	0.23156087
24	0x3d861130	0.06546247
25	0xbd377db7	-0.044797625
26	0xbdd154f0	-0.10221279
27	0xbdb0ac85	-0.086266555
28	0xbe32417a	-0.1740779
29	0xbe7a64f6	-0.24452576
30	0xbe44dbf2	-0.19224527
31	0x3e6d5aac	0.2317912
32	0x3e7f70ba	0.24945346
33	0xbc9c0c04	-0.019048698
34	0x3dbc1921	0.091844805
35	0xbe89202d	-0.2678236
36	0xbdb14863	-0.08656385
37	0x3dde40dd	0.108522154
38	0x3c027b21	0.0079639265
39	0x3bf98797	0.0076150405
40	0xbe9495f2	-0.2902065
41	0x3daad10f	0.08340656
42	0xbdc52089	-0.09625346
43	0x3df98759	0.12184019
44	0x3e397bde	0.18113658
45	0x3cfaea6b	0.030629357
46	0x3d847c0a	0.06468971
47	0x3e6ec02b	0.23315494
48	0x3d1e9ba0	0.038722634
49	0xbe861825	-0.26190296
50	0xbe784e2c	-0.2424857
51	0xbe1f696e	-0.15567562
52	0x3e296d18	0.16545522
53	0xbcf42ae1	-0.029805603
54	0x3d3036e8	0.043021113
55	0x3e1e7946	0.1547595
56	0xbe133ed0	-0.1437943
57	0x3dc73228	0.097263634
58	0x3e5e4d31	0.21709134
59	0x3d93967e	0.072064385
60	0xbdfbd5de	-0.12296651
61	0xbd69a754	-0.057044342
62	0x3c58c424	0.013230357
63	0x3df863a9	0.12128384
64	0xbe9483f3	-0.2900692
65	0xbcbdb8a9	-0.023159342
66	0xbe85e062	-0.26147753
67	0x3e07540f	0.1321566
68	0x3e943d7c	0.2895316
69	0x3e6bb5f5	0.2301863
70	0x3d5716e1	0.052512053
71	0x3e48e120	0.19617128
72	0xbc48cbfc	-0.012255665
73	0x3e50d49a	0.20393601
74	0x3dc588c9	0.0964523
75	0xbe57c0be	-0.21069619
76	0xbcd4d3ad	-0.025979841
77	0x3e31500e	0.17315695
78	0xbd421575	-0.047383744
79	0xbd24af97	-0.040206518
80	0x3df23afc	0.118276566
81	0xbe2ef061	-0.17083885
82	0xbe26d623	-0.16292624
83	0x3e3a375c	0.1818518
84	0xbda6285d	-0.081131674
85	0xbe0bb35a	-0.13642636
86	0x3d6a4418	0.057193846
87	0x3e50d405	0.20393379
88	0x3d221a4f	0.03957587
89	0x3d8cf14e	0.06881963
90	0x3dd2c24c	0.102909654
91	0x3c8b1a54	0.016980328
92	0xbe472aa0	-0.19449854
93	0x3d9b54f8	0.07584566
94	0xbdcf10a5	-0.101105966
95	0x3d41354a	0.04716996
96	0x3e12e729	0.14345993
97	0xbe88e923	-0.2674037
98	0x3e418bef	0.18901037
99	0x3e86c2ba	0.2632044
100	0xbd8a8670	-0.06763923
101	0x3e98c050	0.29834223
102	0x3e80da71	0.25166658
103	0xbe6a97fa	-0.22909537
104	0xbd0dbb5b	-0.034602504
105	0x3cb81fb9	0.022476064
106	0x3e6d1491	0.23152377
107	0xbe3464d5	-0.1761659
108	0x3e47c9bd	0.19510551
109	0xbc1c1d51	-0.009528474
110	0x3e2a9b9a	0.1666092
111	0x3e17d513	0.14827375
112	0xbe0149da	-0.12625828
113	0x3e35d006	0.17755136
114	0x3db54680	0.088513374
115	0xbe4f0c70	-0.20219588
116	0xbe0dc846	-0.1384593
117	0xbe0649fc	-0.1311416
118	0x3d9585ac	0.073008865
119	0x3e1f74d1	0.15571906
120	0x3d52dddf	0.051481124
121	0xbdbe7cdf	-0.09301161
122	0x3e35e938	0.17764747
123	0x3d286534	0.04111214
124	0x3e773b23	0.24143653
125	0x3e23440b	0.15943925
126	0x3e82ee9c	0.2557267
127	0x3e58e563	0.21181254
128	0xbbb65ebb	-0.005565492
129	0x3dd29dda	0.10284014
130	0x3e5c0bd1	0.21488883
131	0xbcee2cc0	-0.029074073
132	0xbd5c9df4	-0.053861573
133	0xbe3d728f	-0.18500732
134	0x3d5e551a	0.054280378
135	0x3e4e264a	0.20131794
136	0x3e66c0f8	0.22534549
137	0xbe631e6e	-0.22179577
138	0xbe62e077	-0.22155939
139	0xbe0edb03	-0.13950734
140	0xbdb0ace9	-0.0862673
141	0xbe64f1ba	-0.22357836
142	0x3e532beb	0.20622222
143	0xbd8be8d3	-0.06831517
144	0xbd65304e	-0.05595427
145	0xbdffd5b4	-0.124919325
146	0xbe671d1e	-0.22569701
147	0xbdf15f64	-0.117857724
148	0xbe699491	-0.2281058
149	0x3db61449	0.08890588
150	0xbe22f1e6	-0.1591259
151	0x3e091fdf	0.13391064
152	0x3d6a9437	0.057270255
153	0xbd1a81a9	-0.03772131
154	0x3e8da7f7	0.2766721
155	0x3e37f0bd	0.17962928
156	0xbe259baf	-0.1617267
157	0xbe36c993	-0.17850332
158	0x3cf01e39	0.029311286
159	0x3e7bdaef	0.24595235
160	0xbe1b1db5	-0.15148051
161	0xbc2eb32d	-0.010662836
162	0xbe5335df	-0.20626019
163	0xbe0f168d	-0.13973446
164	0xbdb6dc78	-0.0892877
165	0xbe20e062	-0.15710595
166	0x3d848265	0.06470183
167	0x3e9203af	0.28518435
168	0x3e9c0370	0.30471373
169	0x3e9acc62	0.30234057
170	0x3e88d501	0.2672501
171	0x3e116e44	0.14202219
172	0x3e57942d	0.21052618
173	0xbe1608a3	-0.14651732
174	0x3e1eee02	0.1552048
175	0xbcf020a1	-0.029312434
176	0x3b879462	0.0041375617
177	0xbd6be58c	-0.05759196
178	0xbc9206b9	-0.017825471
179	0xbe268602	-0.16262057
180	0x3e6a6f4b	0.22894017
181	0xbdc0b488	-0.094094336
182	0xbe71697a	-0.23575392
183	0xbe875619	-0.26432875
184	0x3dac164f	0.084026925
185	0xbdcc98c8	-0.09990078
186	0x3ea1cf05	0.31603256
187	0xbda45a12	-0.08024992
188	0x3e09eaf7	0.13468538
189	0x3de7f75d	0.11326478
190	0xbe79caf1	-0.24393822
191	0xbe614355	-0.21998341
192	0xbdd112e4	-0.10208681
193	0xbe593602	-0.21212009
194	0xbd92e03d	-0.07171676
195	0xbe972730	-0.29522085
196	0x3e09258e	0.13393232
197	0x3db41f85	0.087950744
198	0xbe061213	-0.13092832
199	0x3acfb0fa	0.001584559
200	0x3e30d07b	0.17267029
201	0xbe719454	-0.23591739
202	0xbcedddb7	-0.029036386
203	0x3d1b4c70	0.037914693
204	0xbe7adbfc	-0.2449798
205	0xbe62e494	-0.22157508
206	0x3d4d9539	0.050191138
207	0x3e48e5e0	0.1961894
208	0x3e795eae	0.24352524
209	0xbe48e387	-0.19618045
210	0x3ddfe022	0.10931422
211	0x3da899c4	0.082324535
212	0x3e0c0115	0.13672288
213	0x3e6312cf	0.22175144
214	0x3dc15fe5	0.094421186
215	0x3d8d1260	0.068882704
216	0x3e76d824	0.24105889
217	0x3e5cf794	0.21578819
218	0x3e4c1805	0.19931038
219	0xbe223e72	-0.15844133
220	0xbccb4872	-0.024814818
221	0xbe9e1c05	-0.30880752
222	0x3ded2dea	0.11581023
223	0x3cc2c412	0.023775134
224	0xbe48c7e9	-0.1960751
225	0x3e42d392	0.1902602
226	0x3db946b2	0.09046687
227	0xbde47d95	-0.11156765
228	0x3d682571	0.056676332
229	0xbe060d9e	-0.13091132
230	0xbe4a81dd	-0.19776101
231	0xbd37e4eb	-0.044896048
232	0xbd058f21	-0.0326072
233	0x3d32e99c	0.04367982
234	0x3d1df488	0.03856328
235	0xbd16888a	-0.036751308
236	0x3cf7894f	0.030216841
237	0x3e1674d3	0.14693002
238	0xbe49e781	-0.19717218
239	0xbe138bcd	-0.14408799
240	0xbcbf4a44	-0.023350842
241	0xbd365c0d	-0.04452138
242	0x3ca007c9	0.019534962
243	0xbe95281b	-0.2913216
244	0xbe7ebd15	-0.24876817
245	0x3e8ca3d4	0.2746874
246	0xbdfe0d42	-0.124048725
247	0x3d862bbc	0.065513104
248	0x3d2b373c	0.041800722
249	0xbe15ece9	-0.14641155
250	0xbe3dc58b	-0.18532388
251	0x3d9bace4	0.07601336
252	0x3d8cf9b4	0.068835646
253	0x3d9312fe	0.07181357
254	0xbe4aacc4	-0.19792467
255	0xbdd6dc2c	-0.10491213
