Capstone-ML-model/Classification/model_classification.tflite (tflite, 12428 bytes, 6 tensors)

arith.constant f4 [5, 32]
000000 27 1e 55 3e 43 4d d5 bf d0 e1 26 be ca be 8f 3e
       0.20812283 -1.6664203 -0.16297078 0.28075248
000010 c7 d8 c7 be 95 31 64 bf bd ee 62 3e ea 6f f0 bd
       -0.39032575 -0.89138156 0.22161384 -0.11740096
000020 e9 ea 21 3d 15 54 d5 3e 8e 52 90 bf 88 fb 35 3e
       0.03953067 0.41665712 -1.1275194 0.17771733
000030 ec 03 4b 3e ff 4e 21 be 66 52 b6 be 18 ab df bf
       0.19825715 -0.15752791 -0.3560974 -1.7474089
000040 ed fe cc 3e be 5e 32 be 7f ed c7 3e ca be bf bf
       0.40038243 -0.17418954 0.39048383 -1.4980099
000050 21 ab 86 bd c1 f6 f6 3d 0a 73 a7 bf 20 1c 11 c0
       -0.06575609 0.12058783 -1.3081982 -2.2673416
000060 5f cd 00 c0 51 da 8a be bf 63 93 3e 7b 9f 38 3e
       -2.0125349 -0.27119687 0.28787038 0.18029587
000070 0c 4b 06 c0 1e 1d 03 bf 33 ff 0e 3e 38 eb d5 3d
       -2.0983305 -0.51216304 0.13964538 0.10445255
000080 97 c2 b7 be ae a7 4b 3e 9c b7 7f 3e 98 df b3 be
       -0.35890648 0.19888183 0.24972385 -0.35131526
000090 69 c6 5b bf 7f 5c 83 3d 96 45 1b c0 25 a0 82 bf
       -0.85849625 0.064141266 -2.4261222 -1.0205122
0000a0 76 a4 14 bf 3d 95 d3 bf 6c 46 63 bf 80 74 96 be
       -0.5806345 -1.6529919 -0.8877933 -0.29385757
0000b0 fb 4e e7 be 29 88 a5 3e aa d7 85 be 5c 0e cf 3e
       -0.45177445 0.32330444 -0.261411 0.40440643
0000c0 05 43 08 c0 74 72 d7 3f 31 7e b3 bf 58 5c f1 3e
       -2.1290905 1.6831803 -1.4022886 0.47140765
0000d0 09 94 4c bf 6e b7 8c 3f 4a 20 26 be af f0 ef 3e
       -0.79913384 1.0993478 -0.16223255 0.46863315
0000e0 36 2d 76 3e 34 28 f5 3f d5 fc f1 be 05 56 17 bf
       0.24040684 1.9152894 -0.47263208 -0.5911563
0000f0 9c b9 e9 3e ca 56 21 bf 40 d7 74 bf 84 1c 47 bf
       0.4564942 -0.63023055 -0.95640945 -0.77777886
000100 43 e0 a2 bf 1d 55 1d 3e 75 2c 79 3e a3 72 e0 bf
       -1.2724689 0.153645 0.24333365 -1.7534984
000110 5b ba af bf 2b 25 17 bf 70 f6 5b 3d ad 45 8b 3e
       -1.3728746 -0.5904109 0.053701818 0.27201596
000120 a1 2d 59 3e 32 10 94 3e 28 ad 0d bf 7d 17 06 bd
       0.21208812 0.28918606 -0.5534234 -0.032737244
000130 f4 22 d5 3e a4 0c a4 3e d1 80 9c 3d d3 3b a6 3e
       0.4162823 0.32040894 0.07641757 0.32467517
000140 3a da 98 3e 99 19 8f bf cd b0 a7 3e 0d 6a b6 3e
       0.29853994 -1.1179687 0.32752076 0.35627785
000150 0d dd 14 3e 90 53 65 bf f1 a8 ae be d2 30 be 3e
       0.14537449 -0.8958063 -0.34113267 0.37146622
000160 69 82 2b 3e 6c e2 b2 bf 76 9a fc bf 90 98 88 3e
       0.16748966 -1.3975348 -1.9734638 0.26678896
000170 be a9 c1 3e 95 ee ce 3e 2e 00 c2 bf 4c 2d 13 c0
       0.37824816 0.404164 -1.5156305 -2.2996397
000180 14 75 e4 3e d0 f2 c4 bf 7e 85 05 3e a4 89 84 bf
       0.44620574 -1.53866 0.13039204 -1.0354505
000190 f0 4e d5 3f 79 25 d9 be 67 43 1d 3e fa 57 e2 3e
       1.6664715 -0.42411402 0.15357743 0.44207746
0001a0 71 94 c0 3e 72 51 bc 3e 57 82 9b 3f ee e1 38 3d
       0.37613252 0.36780888 1.2149152 0.04513734
0001b0 64 2e 15 3f 5f c4 5f 3e 39 00 32 3e 63 c5 a7 bf
       0.5827391 0.21852253 0.17382897 -1.3107113
0001c0 22 bc a1 3e a8 63 35 bc 1d 96 a5 3e 8d 79 bd bf
       0.31588846 -0.011071123 0.3234109 -1.4802719
0001d0 c5 f5 6e bc 31 0b c5 be 51 08 86 3f 00 8c 48 bf
       -0.014584963 -0.384851 1.0471288 -0.78338623
0001e0 db 88 a6 3b 52 58 df be 48 29 94 3f 91 e1 26 3e
       0.0050822324 -0.4362207 1.1575098 0.16296984
0001f0 a0 2b d3 bf 82 17 2e 3f 17 21 bb 3f ee b3 3c bd
       -1.6497688 0.6800462 1.4619473 -0.04607003
000200 e7 be 9a bf b9 ba 4c bf e6 af 10 c0 ec de da 3e
       -1.2089509 -0.79972416 -2.260736 0.427482
000210 dd 4b 88 be 76 a7 8f 3f e7 b9 57 3e ec 34 dc be
       -0.2662038 1.122298 0.2106701 -0.43009126
000220 a8 fe 3b bf e5 96 e2 3e 41 75 14 bf ff 57 dd bf
       -0.7343545 0.44255748 -0.57991415 -1.7292479
000230 b4 ac 96 bf 0e 47 25 c0 85 5a 88 bf 19 04 ef be
       -1.1771455 -2.5824618 -1.0652624 -0.46682814
000240 12 26 d2 3e a4 11 0c bf f8 86 d9 3e 81 91 fe be
       0.4104467 -0.5471442 0.42485785 -0.49720386
000250 e8 e9 f4 3e 3b 06 80 be 42 8a 28 bf fa 44 81 bf
       0.47834706 -0.25004753 -0.65835965 -1.0099175
000260 f3 41 c8 bf 61 6f 88 be d2 bf 70 bf 67 1d 19 3f
       -1.5645126 -0.26647475 -0.94042695 0.5981049
000270 93 f3 43 bf b5 a6 e4 be 31 e4 4f bf c4 14 1d 3e
       -0.7654354 -0.44658437 -0.8120757 0.15339953

arith.constant1 f4 [32, 64]
000000 8a b1 86 3e d9 74 b2 3b cf 4d 4c bd 2e 5d c7 3e
       0.26307327 0.005446058 -0.04987889 0.38938278
000010 cb 79 96 bd f2 09 30 bd 63 29 07 3e 7c 81 b5 3b
       -0.07347449 -0.042978235 0.13199382 0.0055391174
000020 ce bc a8 bd 19 2d b2 bf 49 a7 89 3e 32 eb 27 bf
       -0.08239137 -1.3920013 0.2688544 -0.65593255
000030 ef e5 55 bd 96 fc b4 3e 9e 65 8a 3e 25 14 94 3b
       -0.052221235 0.35348958 0.27030653 0.004519003
000040 cc 71 a2 bf 79 e1 c0 3e d9 32 dc 3c 60 e6 97 3b
       -1.2690978 0.37672022 0.026879715 0.004635617
000050 c5 57 93 bc 9c dc 34 bd cc 0f c8 3e e9 4b 96 bc
       -0.017986188 -0.044155702 0.39074552 -0.018346744
000060 89 3e 3d 3e 76 b9 bb bf ca 8b 4e bf d1 c2 37 3c
       0.18480887 -1.4665973 -0.8068205 0.011215881
000070 fb b9 1b 3e 63 1a 1d 3c 80 bd c7 bf 21 a4 ad 3d
       0.15207665 0.009588811 -1.5604706 0.08478571
000080 97 3b 76 be b5 83 eb 3e 20 79 87 3e 27 6a 9e be
       -0.24046169 0.45998922 0.264596 -0.30940363
000090 75 9a 5f 3e 43 8b 3e be bf 26 d9 3e 94 50 a0 bd
       0.21836264 -0.18607812 0.42412373 -0.07827869
0000a0 45 8b de bf a7 a3 98 3e 75 3e 73 bf e5 a0 b4 3e
       -1.7386252 0.29812357 -0.95017177 0.35279003
0000b0 8d 37 6c 3e 7e 10 c1 3d 6f fd b5 be 5a fb a5 bf
       0.23068066 0.09426974 -0.35544917 -1.2967331
0000c0 50 c2 ce be 0b 8c 61 bd de d8 a0 3c 2c b5 a7 3d
       -0.40382624 -0.055065196 0.01963466 0.08188853
0000d0 8f 30 ac bf 9d 7a a5 bc 23 01 6d bd 3e b3 9b bd
       -1.3452319 -0.020200068 -0.057862412 -0.07602547
0000e0 8e 37 04 bd e7 6f 04 3e 65 78 d0 bd 49 dc f4 bc
       -0.032279544 0.12933312 -0.101792134 -0.029890196
0000f0 10 51 91 be 32 df f4 3c 5d 61 bd bf 84 37 41 be
       -0.28382158 0.029891584 -1.4795338 -0.18868834
000100 8a d1 4a be a7 0b 48 bd fa 3e 3a be 35 35 a0 bc
       -0.19806495 -0.048839238 -0.18188086 -0.019556621
000110 2b 56 93 be 3d ca 76 bd 7f 1e 36 3e dd cc 55 3e
       -0.28776678 -0.060251463 0.17785071 0.2087893
000120 f6 9c 7a be 2e 53 8d 3f a0 52 64 3d ca 5b c3 3e
       -0.24473938 1.104101 0.05574286 0.38155967
000130 b4 4b 49 3d 73 00 08 be 71 48 8a be 00 fd 5f 3e
       0.04914446 -0.13281421 -0.27008393 0.21873856
000140 f5 f2 d0 3f aa 7c 0d be 7a b0 e5 be c5 45 5d 3e
       1.6324145 -0.13817087 -0.44861203 0.21608646
000150 5b 28 14 be f8 b3 97 be 3a 20 35 3e 32 9b aa be
       -0.1446852 -0.29629493 0.17688075 -0.3332153
000160 d5 ee af be b9 7d b6 3f 7a 01 6e 3f ba ee 4b 3c
       -0.34361902 1.4257118 0.92971003 0.012447054
000170 88 06 29 3e d4 10 f8 3d 9f 07 93 3f e4 45 85 3d
       0.16506398 0.12112585 1.1486701 0.06507471
000180 91 ab 81 3e fd d6 44 3d 00 bc 0b 3c 24 de 6c 3d
       0.25326207 0.04805659 0.008528709 0.057829037
000190 8b 82 66 be 91 50 2c 3e b1 77 62 bd 2a 95 c2 be
       -0.22510736 0.16827609 -0.055289928 -0.38004428
0001a0 6a 0a a9 3f 04 44 a6 3d 0c f5 92 3f 64 40 0f bd
       1.3206303 0.08118442 1.1481032 -0.034973517
0001b0 39 6d 17 3b 44 28 39 3e 2b 2d f6 bd df a2 99 3f
       0.0023105873 0.18081766 -0.12020334 1.2002829
0001c0 a2 fc 9d be 58 a6 ba be 54 1c 4f bc e6 29 df bd
       -0.30856806 -0.36455035 -0.012641031 -0.10896663
0001d0 8a d6 bb 3f f8 bb e1 be 7e 01 77 3d bc 7d ee be
       1.4674847 -0.4408872 0.060304157 -0.46580303
0001e0 a6 c8 81 3e 04 4c 7d 3e a4 eb 26 be 60 dd ec be
       0.25348395 0.24736029 -0.16300827 -0.46262646
0001f0 e9 95 2b be 31 89 80 bc 36 87 9b 3f bc 8f 9e 3d
       -0.16756405 -0.015690418 1.2150638 0.07742259
000200 42 80 04 be 5d 3a b0 3e 77 7a 86 3c 86 ff 52 3d
       -0.12939551 0.34419528 0.016415818 0.051513217
000210 b1 ef e1 bc 2f 16 65 3f 94 57 96 3f 72 53 7f 3f
       -0.027580114 0.89486974 1.1745477 0.997367
000220 49 b9 a6 bc b1 0e be 3e 7f 67 c8 3d cb 05 11 3f
       -0.020352023 0.37120584 0.09785365 0.56649464
000230 bc a7 49 3f fd 08 db 3c 2a 21 b4 bd 95 7c 5d 3e
       0.7877157 0.026737684 -0.08795388 0.21629556
000240 6c c4 8d 3e 43 a1 bc be 37 d6 af bc f0 08 ee 3d
       0.2768892 -0.36841783 -0.02146445 0.116227984
000250 4f 12 f4 3e a8 ae 08 3e 29 b6 14 3f 98 76 f9 bc
       0.47670218 0.13347876 0.58090454 -0.030452058
000260 39 8b 88 be a2 05 a3 3e 77 c7 e2 3e cb 95 6b bf
       -0.26668718 0.31840235 0.44292805 -0.9202544
000270 a4 d1 a5 3e bc 1e 8d 3f df f2 a2 3e d5 ee 7c 3f
       0.32386506 1.1025004 0.3182592 0.9880193
000280 e1 45 12 3f 03 85 a9 3e e6 4d 64 3f cb d6 47 3f
       0.57137877 0.33109292 0.89181364 0.78062123
000290 3d d3 b5 be 6e b4 4c 3f e8 e5 84 be 27 db 71 bd
       -0.35512725 0.79962814 -0.25956655 -0.05904689
0002a0 b2 e7 70 3e 16 2e cb 3e 65 74 d0 3e c2 d0 8f 3c
       0.23525885 0.39683598 0.40713802 0.017555598
0002b0 4c 94 c1 3e d2 03 32 3f 4d 21 57 3e 8b 3e b3 3e
       0.37808454 0.6953708 0.21008797 0.35008654
0002c0 72 a3 c9 bc c2 9a ab 3b 32 86 8e 3c dc 63 6c be
       -0.02461407 0.0052369544 0.017397974 -0.23084968
0002d0 c8 0c 11 3f e0 4b 91 3c c7 85 1f 3c 0e 06 f1 bb
       0.5666013 0.017736375 0.009736485 -0.007355458
0002e0 43 5f 4d 3f 8a dd c4 3e 85 ad 17 3a 17 a9 8c bb
       0.8022348 0.3845027 0.00057860493 -0.004292618
0002f0 8d 43 6a be 37 d7 7b bc 0f df 93 3e 7b 28 37 3f
       -0.22877331 -0.015371135 0.28881118 0.71546143
000300 2d 44 ee bd e3 a9 50 be b0 ed f0 3d 90 f9 b0 be
       -0.11634097 -0.20377307 0.11764085 -0.345654
000310 b8 8e a5 bc b8 b6 67 bf 8c 47 5b bf ff 09 62 bf
       -0.020209655 -0.9051318 -0.85656047 -0.882965
000320 92 2d 08 3e 06 c8 5b be c8 2b c7 3b 1a 5c 6f 3d
       0.13298634 -0.21463022 0.006078217 0.058437444
000330 72 31 bc be 42 88 0f be bc ce 20 3f f9 1d 1f bf
       -0.36756474 -0.14016822 0.6281545 -0.6215511
000340 d6 8b ee bc 8a 4c 23 3e ec d3 f9 3d a9 60 2d be
       -0.029119413 0.15947166 0.12198624 -0.16931404
000350 77 2b 0e be 73 69 cd 3e 09 83 86 be 69 55 0c 3e
       -0.13883768 0.40119514 -0.26271847 0.13704456
000360 62 5a 34 3e 3e dc 99 be 05 cc a8 be 57 52 2e 3f
       0.17612603 -0.30050844 -0.32968155 0.6809439
000370 c6 42 5e bd 2a dc 58 bf 79 a0 8f be 24 6b 8c bf
       -0.0542629 -0.84710944 -0.28052118 -1.0970197
000380 02 77 fc be 38 2d 1f be 7d ad 56 bf 1d 7d 1d bf
       -0.49309546 -0.15544593 -0.8385847 -0.6151903
000390 6d 00 8e 3e fd 4f 2a bf de 68 74 ba ed 96 cc 3d
       0.277347 -0.665283 -0.0009323488 0.09989724
0003a0 f9 ac 0e be cc 62 13 be 05 f2 21 bd 3d 08 11 3e
       -0.13933171 -0.14393157 -0.03953745 0.14163299
0003b0 ef 10 54 be cf fd bb be 68 b4 c4 be 8d 19 5f bd
       -0.20709585 -0.36717078 -0.3841889 -0.054467726
0003c0 10 30 80 3e 6a c9 52 3e 83 99 15 bd 1b 46 f7 3e
       0.2503667 0.20584646 -0.036523353 0.48295674
0003d0 ec af d1 3c 10 b0 9f 3e 5b b6 82 be c9 54 76 3e
       0.025596581 0.31189013 -0.2552975 0.2405578
0003e0 69 e8 0b bf c4 cd 7f be 69 33 34 3e 19 fd 2e 3e
       -0.54651505 -0.24980837 0.17597736 0.17088737
0003f0 d6 1a 84 3f e8 63 01 3e 89 a5 23 bd 25 25 41 bf
       1.032069 0.12635767 -0.03995279 -0.75447303

arith.constant2 f4 [5]
000000 4a a8 f9 3d 2f 43 2b 3d 1e b8 82 3e 79 9a 3a be
       0.12190302 0.04181212 0.25531095 -0.18222989
000010 8d 08 e0 be
       -0.43756524

arith.constant3 f4 [32]
000000 a3 fd 16 3e 5a 9b f4 3d 69 57 0a 3f 3d fe d4 be
       0.14745192 0.119436935 0.5403963 -0.41600218
000010 31 e5 17 3e 96 d1 80 be f9 ef b9 3e dc cf e1 3e
       0.14833523 -0.251599 0.36315897 0.44103897
000020 50 81 ab 3e a3 e5 86 3e e9 c3 5d 3e fe 66 8f 3e
       0.33497095 0.26347074 0.21656765 0.28008264
000030 b9 1c f4 3e 9c 99 0d 3f 0c 38 d7 3e 11 cd 93 3d
       0.47678164 0.55312514 0.42034948 0.07216848
000040 cc 20 8f 3e 98 23 d6 bd 19 dd aa 3e 80 18 b7 3d
       0.2795471 -0.10456008 0.3337181 0.0894022
000050 0c d4 de 3d 51 58 3b bd 81 31 19 3e 36 ca 9b 3d
       0.108802885 -0.045738522 0.1496029 0.07606928
000060 2d b1 d8 3e 7c 56 a7 bd 06 d7 20 3e 7b 24 72 3e
       0.42322674 -0.081707925 0.15707025 0.23646729
000070 3d 71 b5 3d 4f d7 a2 3e 7b 92 39 3e 5c 43 33 3d
       0.08859489 0.31804892 0.18122284 0.04376541

TransferLearningModel_1/Dense1_1/Add/ReadVariableOp f4 [64]
000000 d0 ae 2a bb 16 0b ac 3d 82 ac 76 3d 16 9c cc bd
       -0.0026044138 0.08400552 0.06022311 -0.099907085
000010 30 d3 a8 3e 1f 0f 34 3d 6f 26 9a 3d c7 30 ea 3d
       0.32973623 0.043959733 0.07526862 0.11435085
000020 1a 95 83 3d 98 ed fa be 35 7f 03 3e 60 36 71 be
       0.06424923 -0.49009395 0.12841494 -0.23555899
000030 5a 83 27 be 44 30 17 3e 0d 40 e7 bd bb d4 41 be
       -0.163587 0.14764506 -0.112915136 -0.18928806
000040 6c 11 03 bf 82 62 2d be 6f 93 56 3e 17 58 7f 3d
       -0.5119846 -0.16932109 0.20954679 0.06233987
000050 87 c5 b7 bd e4 4b 92 bd ea 58 61 3e 61 72 d5 3e
       -0.08973222 -0.07143381 0.22006574 0.41688827
000060 35 b4 24 3c 1d 1d c7 be cd ea d3 be 3e fc 19 bf
       0.01005273 -0.388894 -0.41390076 -0.60150516
000070 f5 ce 9c 3d e7 bd dd 3d 62 61 ea be 13 00 f7 3d
       0.076566614 0.108272366 -0.45777422 0.12060561
000080 7a bb fb bd 15 f7 2a 3e cb 5e 9a 3c a9 34 3d be
       -0.12291618 0.16695817 0.018844029 -0.1847712
000090 7f c6 18 be 7a 16 9a bd 7c 63 03 be 97 7b fe 3e
       -0.1491947 -0.07523818 -0.12830919 0.49703667
0000a0 a6 d1 d7 be fb 56 8c 3d 5f 78 e3 be 3d 7d 82 3d
       -0.42152137 0.06852528 -0.44427773 0.063715436
0000b0 cd 6f 59 be 89 86 0d be 2d fd e0 bd 89 ac f4 be
       -0.21234055 -0.13820852 -0.109857894 -0.47787884
0000c0 0f b7 9b be 00 4f 1b 3e 7a dc b0 3d a9 f8 97 be
       -0.304131 0.15166855 0.086358026 -0.296819
0000d0 26 1e e0 be a8 ec e0 3d aa cf 5c bd 2d 84 9b 3d
       -0.43773 0.109826386 -0.05390898 0.0759357
0000e0 94 68 5e 3d 0c 21 0f 3c 9b 5e 84 3d 61 20 2d 3e
       0.054298952 0.008735906 0.06463357 0.16906883
0000f0 23 13 19 bf 7e 0e 91 3d bc ae a9 be 0e b4 bc bd
       -0.59794825 0.07082842 -0.33141124 -0.0921403

TransferLearningModel_1/Dense1_1/MatMul f4 [64, 4]
000000 dc e1 95 3e 39 a3 32 3e 96 53 32 3e 40 ef 60 be
       0.2927388 0.17445077 0.17414698 -0.21966267
000010 1b 4e 0b 3e 19 57 a7 bd e0 23 b2 3e 5a 59 ee 3d
       0.13604014 -0.081709094 0.34792995 0.11638136
000020 24 55 14 3f be 20 06 3f 08 43 da bd 43 b3 80 be
       0.57942414 0.5239371 -0.106573164 -0.25136766
000030 e6 1d c4 bd 93 06 38 3f 97 7c 99 3e 4e b2 00 3e
       -0.09576015 0.7188503 0.29977867 0.12568018
000040 43 09 e1 3e db 84 7b 3e 84 e6 4b be 41 60 6d 3e
       0.4395238 0.24562399 -0.19912153 0.23181249
000050 aa 90 ea bd ea 96 eb bd b7 77 58 3b 26 af 53 3e
       -0.11453374 -0.11503394 0.003303034 0.20672283
000060 0b 76 5d be c0 0e 1f be 4d af 6a 3b f3 9a bd 3e
       -0.21627061 -0.1553297 0.0035810054 0.3703228
000070 3a 3a 0d be 5d e4 82 bd f4 39 34 3d 19 79 73 3e
       -0.13791743 -0.06391213 0.04400058 0.23776664
000080 e1 a8 08 3f 7a b9 97 bb fb 96 83 be fe b0 7d 3a
       0.5338269 -0.004630265 -0.25701126 0.0009677558
000090 83 e6 5d bf 6a 76 29 bd 7b e5 98 3c e6 d4 91 bc
       -0.8667986 -0.041372694 0.018664112 -0.017801713
0000a0 5b 4e 18 3e a9 3d 94 bd 2f 1d eb 3e b9 cf b2 3d
       0.1487364 -0.07238323 0.45920703 0.08731026
0000b0 84 35 e9 be c6 e6 a7 bd bc 8c 2b 3e fe 2a 81 bd
       -0.45548642 -0.081983134 0.16752905 -0.06307028
0000c0 d5 5f 48 3e 27 a6 83 3e 26 82 ea 3d 0e b8 dd be
       0.19567807 0.25712702 0.11450605 -0.43304485
0000d0 87 3b 86 3e 4c 80 15 be 3e 60 89 3e 5b 72 3f be
       0.2621729 -0.14599723 0.2683124 -0.18695967
0000e0 f7 66 e7 3e 27 c7 11 3e 69 f2 3f bd 54 5a dd be
       0.45195743 0.14236127 -0.04686204 -0.43232977
0000f0 be 13 15 be 66 e7 ee 3e f9 e3 8d 3e 17 3c fc 3c
       -0.14558312 0.46660918 0.27712992 0.030790372
000100 41 10 3b bf 35 2a 05 3e bd 2a a4 bc 7b 4d f1 3d
       -0.73071676 0.13004382 -0.02003991 0.11782356
000110 d1 53 c1 3e 2f 84 a7 3c 26 cb ae bb e7 47 f4 be
       0.3775926 0.020448772 -0.005334276 -0.47711107
000120 30 17 fa 3e 88 46 d4 bd 09 36 07 be 10 30 2e bd
       0.48845816 -0.10365015 -0.13204207 -0.042526305
000130 cf 27 ca 3d 72 da f0 bd d4 c7 3f 3e b6 b1 28 bd
       0.09870874 -0.11760415 0.18728572 -0.041185103
000140 c6 7b 43 3e 27 a2 c7 3e d3 6f c7 3d 3c 8c a7 be
       0.19090185 0.389909 0.09738126 -0.32724178
000150 e4 95 f2 3e 33 d7 07 3e 79 51 4e bd bf 55 d3 be
       0.47379982 0.13265686 -0.050370667 -0.41276357
000160 48 26 88 bb 1c b4 8b 3d 7f 39 80 3e b5 37 0b 3e
       -0.004154954 0.068214625 0.25043866 0.1359547
000170 36 f1 08 3f 28 4a b1 bd fe f2 db 3c f0 26 a3 bd
       0.5349306 -0.08656722 0.026849266 -0.07966411
000180 2c b6 a9 3e 9f c9 54 be ee c0 df 3e 75 eb 20 3e
       0.331468 -0.20780037 0.4370188 0.1571482
000190 d1 ef 3d bf 07 f9 63 3d 29 d3 ab bc d6 67 43 3d
       -0.74194056 0.055657413 -0.020974712 0.047706448
0001a0 71 83 2e bf 9a 8a 85 bd db 98 a3 3b 21 36 6f bd
       -0.68169314 -0.06520577 0.004992587 -0.05840123
0001b0 28 8c 1d 3f 69 d9 1b bd 47 bf 26 3e b3 1d 49 be
       0.61541986 -0.038049135 0.16283904 -0.19640236
0001c0 b4 a9 06 3e e2 fb 0e 3e fc df a0 3e f5 0f 21 bc
       0.13150674 0.13963273 0.31420887 -0.009830465
0001d0 4e c4 86 be 81 3a 0a bd 89 a0 1b bd 77 cc c4 3e
       -0.26321644 -0.0337472 -0.037994895 0.38437244
0001e0 ff a9 33 bf d2 66 62 be 05 0b 59 3e 62 d5 1e be
       -0.7018127 -0.22109535 0.2119561 -0.15511087
0001f0 60 ef a7 be 20 f3 71 3e 2d 61 57 bd 5f 44 d9 3e
       -0.32799816 0.23627901 -0.05258291 0.42434976
000200 41 67 94 be b5 90 3f 3e fe 63 c2 be e3 f8 83 3c
       -0.28985026 0.18707545 -0.37966913 0.01610989
000210 55 0f e2 3d c5 da 2d 3e 0a 64 15 3f 87 86 5b 3e
       0.110380806 0.16977985 0.5835577 0.21438037
000220 08 02 83 3d 8c e7 a8 3e e1 06 25 3c 10 42 66 be
       0.06396872 0.32989156 0.010072441 -0.22486138
000230 a0 7e ca be 8a bf b7 3e b9 56 d9 be 61 31 81 3e
       -0.39549732 0.3588832 -0.42448977 0.25232986
000240 9f 1b d5 3e d3 d6 8b be 9c ba b3 3e 5a 36 8e 3d
       0.41622636 -0.27312335 0.3510331 0.069439605
000250 6c d1 b6 be 99 f5 a1 3e aa 7a c7 be 5d 25 3d 3e
       -0.3570665 0.3163269 -0.38960773 0.18471284
000260 46 a6 99 3e 14 b5 0e 3b e7 5b 30 3c e4 02 c9 be
       0.3000967 0.0021775411 0.010764099 -0.39260018
000270 ca af 05 3f d3 f3 a6 3d 9f 1e 84 bc d7 d4 89 3d
       0.5222136 0.081519745 -0.016127883 0.06730049
000280 5f bf 2f bf 50 08 2e be fa 58 3b 3e d4 dc 09 be
       -0.68651384 -0.16995358 0.1829566 -0.13463145
000290 bd 2f 2e 3e 97 eb af 3e 82 6b 6f 3e 83 dc 0a be
       0.17010398 0.34359428 0.23380855 -0.13560681
0002a0 99 88 38 bf c7 23 0c be 85 e4 3b 3d 3d aa 01 be
       -0.7208343 -0.13685523 0.04587223 -0.12662597
0002b0 b1 47 4f 3d 3a e5 b8 3d 6a 5a a5 3e 3d 20 85 3e
       0.05060548 0.090280965 0.32295543 0.26001158
0002c0 9e 72 3e be 66 c0 ea 3d 87 c0 b0 be 7c 42 11 3c
       -0.1859841 0.11462478 -0.34521887 0.008865949
0002d0 f6 03 0c 3e 3e 47 8c 3e ca 76 65 3d 21 cf a7 be
       0.13673386 0.27398103 0.05602149 -0.32775214
0002e0 bb 84 5f be ce 7d 6f 3e f6 13 7a be 5c 5e 1f 3e
       -0.21827976 0.23387834 -0.24421677 0.15563339
0002f0 88 73 4c bf 88 bb 74 bd a4 ee 7b 3c 54 a0 6d bd
       -0.79863787 -0.059749156 0.015376721 -0.05801423
000300 a9 e8 8c 3e 9c 76 c8 3e ef f6 3e be f2 db 67 3e
       0.27521256 0.39152992 -0.18648885 0.22642496
000310 c3 41 0d 3f b4 16 ac 3c 5c 31 0b 3d 09 de da 3e
       0.5517847 0.02100692 0.03398262 0.42747524
000320 18 15 87 3d 82 58 76 3d fb a0 a2 3e 0e 4c 45 3e
       0.0659582 0.060143 0.31763443 0.19267294
000330 6a e7 07 3f 5d a6 85 3d 9c 68 19 3e 1c 82 59 bd
       0.53087485 0.06525872 0.14981312 -0.053102598
000340 8a d9 54 bf a2 07 61 3d 01 fa 8e ba 8b c7 6c 3d
       -0.8314444 0.05493892 -0.0010908247 0.057807487
000350 c1 2c e5 3e 49 ed 17 bd 6b 58 34 3d f9 bd 8e 3e
       0.44760707 -0.037091527 0.044029634 0.27879313
000360 99 c7 01 be f0 5d 4a 3d 05 9d 6f 3e a4 d2 2c 3e
       -0.12673797 0.049405992 0.23399742 0.16877228
000370 dd 22 19 3f 6d 2c 23 be 96 1c 4c 3d 4e 0a 83 3e
       0.5981882 -0.15934916 0.04983195 0.255938
000380 b0 08 87 3d 0a 3a 0c 3d 49 26 8e 3d eb 83 b3 be
       0.06593454 0.034235038 0.06940896 -0.35061583
000390 21 66 ab be 9a e8 1d 3e 28 ab 92 3e d1 90 cb 3d
       -0.33476356 0.15420762 0.28646207 0.09939731
0003a0 1b c6 de 3e 3c 74 71 3e db 4c 71 bd 53 c7 56 be
       0.43510517 0.23579496 -0.058911186 -0.20974474
0003b0 ee 20 38 3f fc 4b 82 be f3 91 99 3d e1 a7 03 3e
       0.71925247 -0.25448596 0.07498541 0.1285701
0003c0 7d d1 1e 3f 24 bb 43 3d 53 0f 84 3c 62 29 89 bd
       0.62038404 0.047785893 0.016120588 -0.06697346
0003d0 6e a8 ec 3d 3c a1 b6 bc 1b c0 d2 3e 55 7b e1 ba
       0.11555563 -0.02229368 0.4116219 -0.0017202894
0003e0 52 3c 3e bf c2 b4 4d 3e 0d 83 fa bc 56 8e 3a 3e
       -0.7431079 0.20088485 -0.030580068 0.1821836
0003f0 c2 26 1b be f0 dc db ba f8 7d 88 be d1 f3 00 be
       -0.15151504 -0.0016774219 -0.26658607 -0.12593009
